<?xml version="1.0" ?>
<net name="pose_landmark_full_FP32" version="10">
	<layers>
		<layer id="0" name="input_1" type="Parameter" version="opset1">
			<data element_type="f32" shape="1,3,256,256"/>
			<output>
				<port id="0" names="input_1:0" precision="FP32">
					<dim>1</dim>
					<dim>3</dim>
					<dim>256</dim>
					<dim>256</dim>
				</port>
			</output>
		</layer>
		<layer id="1" name="input_1/reverse_input_channels/Concat21319_const" type="Const" version="opset1">
			<data element_type="f32" offset="0" shape="24,3,3,3" size="2592"/>
			<output>
				<port id="0" names="Conv2D/filter:0" precision="FP32">
					<dim>24</dim>
					<dim>3</dim>
					<dim>3</dim>
					<dim>3</dim>
				</port>
			</output>
		</layer>
		<layer id="2" name="Conv2D" type="Convolution" version="opset1">
			<data auto_pad="explicit" dilations="1,1" pads_begin="1,1" pads_end="1,1" strides="2,2"/>
			<input>
				<port id="0">
					<dim>1</dim>
					<dim>3</dim>
					<dim>256</dim>
					<dim>256</dim>
				</port>
				<port id="1">
					<dim>24</dim>
					<dim>3</dim>
					<dim>3</dim>
					<dim>3</dim>
				</port>
			</input>
			<output>
				<port id="2" names="Conv2D:0" precision="FP32">
					<dim>1</dim>
					<dim>24</dim>
					<dim>128</dim>
					<dim>128</dim>
				</port>
			</output>
		</layer>
		<layer id="3" name="Add/y/EltwiseUnsqueeze9818_const" type="Const" version="opset1">
			<data element_type="f32" offset="2592" shape="1,24,1,1" size="96"/>
			<output>
				<port id="0" names="Add/y:0" precision="FP32">
					<dim>1</dim>
					<dim>24</dim>
					<dim>1</dim>
					<dim>1</dim>
				</port>
			</output>
		</layer>
		<layer id="4" name="Add" type="Add" version="opset1">
			<data auto_broadcast="numpy"/>
			<input>
				<port id="0">
					<dim>1</dim>
					<dim>24</dim>
					<dim>128</dim>
					<dim>128</dim>
				</port>
				<port id="1">
					<dim>1</dim>
					<dim>24</dim>
					<dim>1</dim>
					<dim>1</dim>
				</port>
			</input>
			<output>
				<port id="2" names="Add:0" precision="FP32">
					<dim>1</dim>
					<dim>24</dim>
					<dim>128</dim>
					<dim>128</dim>
				</port>
			</output>
		</layer>
		<layer id="5" name="model_1/model/re_lu/Relu6_model_1/model/batch_normalization/FusedBatchNormV3_model_1/model/batch_normalization_1/FusedBatchNormV3_model_1/model/depthwise_conv2d/depthwise_model_1/model/depthwise_conv2d_19/depthwise_model_1/model/conv2d/Conv2D" type="Clamp" version="opset1">
			<data max="6.0" min="0.0"/>
			<input>
				<port id="0">
					<dim>1</dim>
					<dim>24</dim>
					<dim>128</dim>
					<dim>128</dim>
				</port>
			</input>
			<output>
				<port id="1" names="model_1/model/re_lu/Relu6_model_1/model/batch_normalization/FusedBatchNormV3_model_1/model/batch_normalization_1/FusedBatchNormV3_model_1/model/depthwise_conv2d/depthwise_model_1/model/depthwise_conv2d_19/depthwise_model_1/model/conv2d/Conv2D:0" precision="FP32">
					<dim>1</dim>
					<dim>24</dim>
					<dim>128</dim>
					<dim>128</dim>
				</port>
			</output>
		</layer>
		<layer id="6" name="2235622359_const" type="Const" version="opset1">
			<data element_type="f32" offset="2688" shape="24,1,1,3,3" size="864"/>
			<output>
				<port id="0" names="depthwise/filter_in:0" precision="FP32">
					<dim>24</dim>
					<dim>1</dim>
					<dim>1</dim>
					<dim>3</dim>
					<dim>3</dim>
				</port>
			</output>
		</layer>
		<layer id="7" name="depthwise" type="GroupConvolution" version="opset1">
			<data auto_pad="same_upper" dilations="1,1" pads_begin="0,0" pads_end="0,0" strides="1,1"/>
			<input>
				<port id="0">
					<dim>1</dim>
					<dim>24</dim>
					<dim>128</dim>
					<dim>128</dim>
				</port>
				<port id="1">
					<dim>24</dim>
					<dim>1</dim>
					<dim>1</dim>
					<dim>3</dim>
					<dim>3</dim>
				</port>
			</input>
			<output>
				<port id="2" names="depthwise:0" precision="FP32">
					<dim>1</dim>
					<dim>24</dim>
					<dim>128</dim>
					<dim>128</dim>
				</port>
			</output>
		</layer>
		<layer id="8" name="Add_1/y/EltwiseUnsqueeze9822_const" type="Const" version="opset1">
			<data element_type="f32" offset="3552" shape="1,24,1,1" size="96"/>
			<output>
				<port id="0" names="Add_1/y:0" precision="FP32">
					<dim>1</dim>
					<dim>24</dim>
					<dim>1</dim>
					<dim>1</dim>
				</port>
			</output>
		</layer>
		<layer id="9" name="Add_1" type="Add" version="opset1">
			<data auto_broadcast="numpy"/>
			<input>
				<port id="0">
					<dim>1</dim>
					<dim>24</dim>
					<dim>128</dim>
					<dim>128</dim>
				</port>
				<port id="1">
					<dim>1</dim>
					<dim>24</dim>
					<dim>1</dim>
					<dim>1</dim>
				</port>
			</input>
			<output>
				<port id="2" names="Add_1:0" precision="FP32">
					<dim>1</dim>
					<dim>24</dim>
					<dim>128</dim>
					<dim>128</dim>
				</port>
			</output>
		</layer>
		<layer id="10" name="model_1/model/re_lu_1/Relu6_model_1/model/batch_normalization_1/FusedBatchNormV3_model_1/model/depthwise_conv2d/depthwise_model_1/model/depthwise_conv2d_19/depthwise" type="Clamp" version="opset1">
			<data max="6.0" min="0.0"/>
			<input>
				<port id="0">
					<dim>1</dim>
					<dim>24</dim>
					<dim>128</dim>
					<dim>128</dim>
				</port>
			</input>
			<output>
				<port id="1" names="model_1/model/re_lu_1/Relu6_model_1/model/batch_normalization_1/FusedBatchNormV3_model_1/model/depthwise_conv2d/depthwise_model_1/model/depthwise_conv2d_19/depthwise:0" precision="FP32">
					<dim>1</dim>
					<dim>24</dim>
					<dim>128</dim>
					<dim>128</dim>
				</port>
			</output>
		</layer>
		<layer id="11" name="Conv2D_1/Transpose14025_const" type="Const" version="opset1">
			<data element_type="f32" offset="3648" shape="16,24,1,1" size="1536"/>
			<output>
				<port id="0" names="Conv2D_1/filter:0" precision="FP32">
					<dim>16</dim>
					<dim>24</dim>
					<dim>1</dim>
					<dim>1</dim>
				</port>
			</output>
		</layer>
		<layer id="12" name="Conv2D_1" type="Convolution" version="opset1">
			<data auto_pad="same_upper" dilations="1,1" pads_begin="0,0" pads_end="0,0" strides="1,1"/>
			<input>
				<port id="0">
					<dim>1</dim>
					<dim>24</dim>
					<dim>128</dim>
					<dim>128</dim>
				</port>
				<port id="1">
					<dim>16</dim>
					<dim>24</dim>
					<dim>1</dim>
					<dim>1</dim>
				</port>
			</input>
			<output>
				<port id="2" names="Conv2D_1:0" precision="FP32">
					<dim>1</dim>
					<dim>16</dim>
					<dim>128</dim>
					<dim>128</dim>
				</port>
			</output>
		</layer>
		<layer id="13" name="model_1/model/batch_normalization_2/FusedBatchNormV3_model_1/model/depthwise_conv2d_32/depthwise_model_1/model/conv2d_1/Conv2D1/y/EltwiseUnsqueeze9826_const" type="Const" version="opset1">
			<data element_type="f32" offset="5184" shape="1,16,1,1" size="64"/>
			<output>
				<port id="0" names="model_1/model/batch_normalization_2/FusedBatchNormV3_model_1/model/depthwise_conv2d_32/depthwise_model_1/model/conv2d_1/Conv2D1/y:0" precision="FP32">
					<dim>1</dim>
					<dim>16</dim>
					<dim>1</dim>
					<dim>1</dim>
				</port>
			</output>
		</layer>
		<layer id="14" name="model_1/model/batch_normalization_2/FusedBatchNormV3_model_1/model/depthwise_conv2d_32/depthwise_model_1/model/conv2d_1/Conv2D1" type="Add" version="opset1">
			<data auto_broadcast="numpy"/>
			<input>
				<port id="0">
					<dim>1</dim>
					<dim>16</dim>
					<dim>128</dim>
					<dim>128</dim>
				</port>
				<port id="1">
					<dim>1</dim>
					<dim>16</dim>
					<dim>1</dim>
					<dim>1</dim>
				</port>
			</input>
			<output>
				<port id="2" names="model_1/model/batch_normalization_2/FusedBatchNormV3_model_1/model/depthwise_conv2d_32/depthwise_model_1/model/conv2d_1/Conv2D1:0" precision="FP32">
					<dim>1</dim>
					<dim>16</dim>
					<dim>128</dim>
					<dim>128</dim>
				</port>
			</output>
		</layer>
		<layer id="15" name="Conv2D_2/Transpose14029_const" type="Const" version="opset1">
			<data element_type="f32" offset="5248" shape="64,16,1,1" size="4096"/>
			<output>
				<port id="0" names="Conv2D_2/filter:0" precision="FP32">
					<dim>64</dim>
					<dim>16</dim>
					<dim>1</dim>
					<dim>1</dim>
				</port>
			</output>
		</layer>
		<layer id="16" name="Conv2D_2" type="Convolution" version="opset1">
			<data auto_pad="same_upper" dilations="1,1" pads_begin="0,0" pads_end="0,0" strides="1,1"/>
			<input>
				<port id="0">
					<dim>1</dim>
					<dim>16</dim>
					<dim>128</dim>
					<dim>128</dim>
				</port>
				<port id="1">
					<dim>64</dim>
					<dim>16</dim>
					<dim>1</dim>
					<dim>1</dim>
				</port>
			</input>
			<output>
				<port id="2" names="Conv2D_2:0" precision="FP32">
					<dim>1</dim>
					<dim>64</dim>
					<dim>128</dim>
					<dim>128</dim>
				</port>
			</output>
		</layer>
		<layer id="17" name="Add_2/y/EltwiseUnsqueeze9830_const" type="Const" version="opset1">
			<data element_type="f32" offset="9344" shape="1,64,1,1" size="256"/>
			<output>
				<port id="0" names="Add_2/y:0" precision="FP32">
					<dim>1</dim>
					<dim>64</dim>
					<dim>1</dim>
					<dim>1</dim>
				</port>
			</output>
		</layer>
		<layer id="18" name="Add_2" type="Add" version="opset1">
			<data auto_broadcast="numpy"/>
			<input>
				<port id="0">
					<dim>1</dim>
					<dim>64</dim>
					<dim>128</dim>
					<dim>128</dim>
				</port>
				<port id="1">
					<dim>1</dim>
					<dim>64</dim>
					<dim>1</dim>
					<dim>1</dim>
				</port>
			</input>
			<output>
				<port id="2" names="Add_2:0" precision="FP32">
					<dim>1</dim>
					<dim>64</dim>
					<dim>128</dim>
					<dim>128</dim>
				</port>
			</output>
		</layer>
		<layer id="19" name="model_1/model/re_lu_2/Relu6_model_1/model/batch_normalization_3/FusedBatchNormV3_model_1/model/batch_normalization_4/FusedBatchNormV3_model_1/model/depthwise_conv2d_1/depthwise_model_1/model/conv2d_15/Conv2D_model_1/model/conv2d_2/Conv2D" type="Clamp" version="opset1">
			<data max="6.0" min="0.0"/>
			<input>
				<port id="0">
					<dim>1</dim>
					<dim>64</dim>
					<dim>128</dim>
					<dim>128</dim>
				</port>
			</input>
			<output>
				<port id="1" names="model_1/model/re_lu_2/Relu6_model_1/model/batch_normalization_3/FusedBatchNormV3_model_1/model/batch_normalization_4/FusedBatchNormV3_model_1/model/depthwise_conv2d_1/depthwise_model_1/model/conv2d_15/Conv2D_model_1/model/conv2d_2/Conv2D:0" precision="FP32">
					<dim>1</dim>
					<dim>64</dim>
					<dim>128</dim>
					<dim>128</dim>
				</port>
			</output>
		</layer>
		<layer id="20" name="2240022403_const" type="Const" version="opset1">
			<data element_type="f32" offset="9600" shape="64,1,1,3,3" size="2304"/>
			<output>
				<port id="0" names="depthwise_1/filter_in:0" precision="FP32">
					<dim>64</dim>
					<dim>1</dim>
					<dim>1</dim>
					<dim>3</dim>
					<dim>3</dim>
				</port>
			</output>
		</layer>
		<layer id="21" name="depthwise_1" type="GroupConvolution" version="opset1">
			<data auto_pad="explicit" dilations="1,1" pads_begin="1,1" pads_end="1,1" strides="2,2"/>
			<input>
				<port id="0">
					<dim>1</dim>
					<dim>64</dim>
					<dim>128</dim>
					<dim>128</dim>
				</port>
				<port id="1">
					<dim>64</dim>
					<dim>1</dim>
					<dim>1</dim>
					<dim>3</dim>
					<dim>3</dim>
				</port>
			</input>
			<output>
				<port id="2" names="depthwise_1:0" precision="FP32">
					<dim>1</dim>
					<dim>64</dim>
					<dim>64</dim>
					<dim>64</dim>
				</port>
			</output>
		</layer>
		<layer id="22" name="Add_3/y/EltwiseUnsqueeze9834_const" type="Const" version="opset1">
			<data element_type="f32" offset="11904" shape="1,64,1,1" size="256"/>
			<output>
				<port id="0" names="Add_3/y:0" precision="FP32">
					<dim>1</dim>
					<dim>64</dim>
					<dim>1</dim>
					<dim>1</dim>
				</port>
			</output>
		</layer>
		<layer id="23" name="Add_3" type="Add" version="opset1">
			<data auto_broadcast="numpy"/>
			<input>
				<port id="0">
					<dim>1</dim>
					<dim>64</dim>
					<dim>64</dim>
					<dim>64</dim>
				</port>
				<port id="1">
					<dim>1</dim>
					<dim>64</dim>
					<dim>1</dim>
					<dim>1</dim>
				</port>
			</input>
			<output>
				<port id="2" names="Add_3:0" precision="FP32">
					<dim>1</dim>
					<dim>64</dim>
					<dim>64</dim>
					<dim>64</dim>
				</port>
			</output>
		</layer>
		<layer id="24" name="model_1/model/re_lu_3/Relu6_model_1/model/batch_normalization_4/FusedBatchNormV3_model_1/model/depthwise_conv2d_1/depthwise_model_1/model/conv2d_15/Conv2D" type="Clamp" version="opset1">
			<data max="6.0" min="0.0"/>
			<input>
				<port id="0">
					<dim>1</dim>
					<dim>64</dim>
					<dim>64</dim>
					<dim>64</dim>
				</port>
			</input>
			<output>
				<port id="1" names="model_1/model/re_lu_3/Relu6_model_1/model/batch_normalization_4/FusedBatchNormV3_model_1/model/depthwise_conv2d_1/depthwise_model_1/model/conv2d_15/Conv2D:0" precision="FP32">
					<dim>1</dim>
					<dim>64</dim>
					<dim>64</dim>
					<dim>64</dim>
				</port>
			</output>
		</layer>
		<layer id="25" name="Conv2D_3/Transpose14037_const" type="Const" version="opset1">
			<data element_type="f32" offset="12160" shape="24,64,1,1" size="6144"/>
			<output>
				<port id="0" names="Conv2D_3/filter:0" precision="FP32">
					<dim>24</dim>
					<dim>64</dim>
					<dim>1</dim>
					<dim>1</dim>
				</port>
			</output>
		</layer>
		<layer id="26" name="Conv2D_3" type="Convolution" version="opset1">
			<data auto_pad="same_upper" dilations="1,1" pads_begin="0,0" pads_end="0,0" strides="1,1"/>
			<input>
				<port id="0">
					<dim>1</dim>
					<dim>64</dim>
					<dim>64</dim>
					<dim>64</dim>
				</port>
				<port id="1">
					<dim>24</dim>
					<dim>64</dim>
					<dim>1</dim>
					<dim>1</dim>
				</port>
			</input>
			<output>
				<port id="2" names="Conv2D_3:0" precision="FP32">
					<dim>1</dim>
					<dim>24</dim>
					<dim>64</dim>
					<dim>64</dim>
				</port>
			</output>
		</layer>
		<layer id="27" name="model_1/model/batch_normalization_5/FusedBatchNormV3_model_1/model/depthwise_conv2d_19/depthwise_model_1/model/conv2d_3/Conv2D1/y/EltwiseUnsqueeze9838_const" type="Const" version="opset1">
			<data element_type="f32" offset="18304" shape="1,24,1,1" size="96"/>
			<output>
				<port id="0" names="model_1/model/batch_normalization_5/FusedBatchNormV3_model_1/model/depthwise_conv2d_19/depthwise_model_1/model/conv2d_3/Conv2D1/y:0" precision="FP32">
					<dim>1</dim>
					<dim>24</dim>
					<dim>1</dim>
					<dim>1</dim>
				</port>
			</output>
		</layer>
		<layer id="28" name="model_1/model/batch_normalization_5/FusedBatchNormV3_model_1/model/depthwise_conv2d_19/depthwise_model_1/model/conv2d_3/Conv2D1" type="Add" version="opset1">
			<data auto_broadcast="numpy"/>
			<input>
				<port id="0">
					<dim>1</dim>
					<dim>24</dim>
					<dim>64</dim>
					<dim>64</dim>
				</port>
				<port id="1">
					<dim>1</dim>
					<dim>24</dim>
					<dim>1</dim>
					<dim>1</dim>
				</port>
			</input>
			<output>
				<port id="2" names="model_1/model/batch_normalization_5/FusedBatchNormV3_model_1/model/depthwise_conv2d_19/depthwise_model_1/model/conv2d_3/Conv2D1:0" precision="FP32">
					<dim>1</dim>
					<dim>24</dim>
					<dim>64</dim>
					<dim>64</dim>
				</port>
			</output>
		</layer>
		<layer id="29" name="Conv2D_4/Transpose14041_const" type="Const" version="opset1">
			<data element_type="f32" offset="18400" shape="144,24,1,1" size="13824"/>
			<output>
				<port id="0" names="Conv2D_4/filter:0" precision="FP32">
					<dim>144</dim>
					<dim>24</dim>
					<dim>1</dim>
					<dim>1</dim>
				</port>
			</output>
		</layer>
		<layer id="30" name="Conv2D_4" type="Convolution" version="opset1">
			<data auto_pad="same_upper" dilations="1,1" pads_begin="0,0" pads_end="0,0" strides="1,1"/>
			<input>
				<port id="0">
					<dim>1</dim>
					<dim>24</dim>
					<dim>64</dim>
					<dim>64</dim>
				</port>
				<port id="1">
					<dim>144</dim>
					<dim>24</dim>
					<dim>1</dim>
					<dim>1</dim>
				</port>
			</input>
			<output>
				<port id="2" names="Conv2D_4:0" precision="FP32">
					<dim>1</dim>
					<dim>144</dim>
					<dim>64</dim>
					<dim>64</dim>
				</port>
			</output>
		</layer>
		<layer id="31" name="Add_4/y/EltwiseUnsqueeze9842_const" type="Const" version="opset1">
			<data element_type="f32" offset="32224" shape="1,144,1,1" size="576"/>
			<output>
				<port id="0" names="Add_4/y:0" precision="FP32">
					<dim>1</dim>
					<dim>144</dim>
					<dim>1</dim>
					<dim>1</dim>
				</port>
			</output>
		</layer>
		<layer id="32" name="Add_4" type="Add" version="opset1">
			<data auto_broadcast="numpy"/>
			<input>
				<port id="0">
					<dim>1</dim>
					<dim>144</dim>
					<dim>64</dim>
					<dim>64</dim>
				</port>
				<port id="1">
					<dim>1</dim>
					<dim>144</dim>
					<dim>1</dim>
					<dim>1</dim>
				</port>
			</input>
			<output>
				<port id="2" names="Add_4:0" precision="FP32">
					<dim>1</dim>
					<dim>144</dim>
					<dim>64</dim>
					<dim>64</dim>
				</port>
			</output>
		</layer>
		<layer id="33" name="model_1/model/re_lu_4/Relu6_model_1/model/batch_normalization_6/FusedBatchNormV3_model_1/model/batch_normalization_10/FusedBatchNormV3_model_1/model/depthwise_conv2d_3/depthwise_model_1/model/conv2d_29/Conv2D_model_1/model/conv2d_4/Conv2D" type="Clamp" version="opset1">
			<data max="6.0" min="0.0"/>
			<input>
				<port id="0">
					<dim>1</dim>
					<dim>144</dim>
					<dim>64</dim>
					<dim>64</dim>
				</port>
			</input>
			<output>
				<port id="1" names="model_1/model/re_lu_4/Relu6_model_1/model/batch_normalization_6/FusedBatchNormV3_model_1/model/batch_normalization_10/FusedBatchNormV3_model_1/model/depthwise_conv2d_3/depthwise_model_1/model/conv2d_29/Conv2D_model_1/model/conv2d_4/Conv2D:0" precision="FP32">
					<dim>1</dim>
					<dim>144</dim>
					<dim>64</dim>
					<dim>64</dim>
				</port>
			</output>
		</layer>
		<layer id="34" name="2238422387_const" type="Const" version="opset1">
			<data element_type="f32" offset="32800" shape="144,1,1,3,3" size="5184"/>
			<output>
				<port id="0" names="depthwise_2/filter_in:0" precision="FP32">
					<dim>144</dim>
					<dim>1</dim>
					<dim>1</dim>
					<dim>3</dim>
					<dim>3</dim>
				</port>
			</output>
		</layer>
		<layer id="35" name="depthwise_2" type="GroupConvolution" version="opset1">
			<data auto_pad="same_upper" dilations="1,1" pads_begin="0,0" pads_end="0,0" strides="1,1"/>
			<input>
				<port id="0">
					<dim>1</dim>
					<dim>144</dim>
					<dim>64</dim>
					<dim>64</dim>
				</port>
				<port id="1">
					<dim>144</dim>
					<dim>1</dim>
					<dim>1</dim>
					<dim>3</dim>
					<dim>3</dim>
				</port>
			</input>
			<output>
				<port id="2" names="depthwise_2:0" precision="FP32">
					<dim>1</dim>
					<dim>144</dim>
					<dim>64</dim>
					<dim>64</dim>
				</port>
			</output>
		</layer>
		<layer id="36" name="Add_5/y/EltwiseUnsqueeze9846_const" type="Const" version="opset1">
			<data element_type="f32" offset="37984" shape="1,144,1,1" size="576"/>
			<output>
				<port id="0" names="Add_5/y:0" precision="FP32">
					<dim>1</dim>
					<dim>144</dim>
					<dim>1</dim>
					<dim>1</dim>
				</port>
			</output>
		</layer>
		<layer id="37" name="Add_5" type="Add" version="opset1">
			<data auto_broadcast="numpy"/>
			<input>
				<port id="0">
					<dim>1</dim>
					<dim>144</dim>
					<dim>64</dim>
					<dim>64</dim>
				</port>
				<port id="1">
					<dim>1</dim>
					<dim>144</dim>
					<dim>1</dim>
					<dim>1</dim>
				</port>
			</input>
			<output>
				<port id="2" names="Add_5:0" precision="FP32">
					<dim>1</dim>
					<dim>144</dim>
					<dim>64</dim>
					<dim>64</dim>
				</port>
			</output>
		</layer>
		<layer id="38" name="model_1/model/re_lu_5/Relu6_model_1/model/batch_normalization_7/FusedBatchNormV3_model_1/model/batch_normalization_10/FusedBatchNormV3_model_1/model/depthwise_conv2d_3/depthwise_model_1/model/conv2d_29/Conv2D_model_1/model/depthwise_conv2d_2/depthwise" type="Clamp" version="opset1">
			<data max="6.0" min="0.0"/>
			<input>
				<port id="0">
					<dim>1</dim>
					<dim>144</dim>
					<dim>64</dim>
					<dim>64</dim>
				</port>
			</input>
			<output>
				<port id="1" names="model_1/model/re_lu_5/Relu6_model_1/model/batch_normalization_7/FusedBatchNormV3_model_1/model/batch_normalization_10/FusedBatchNormV3_model_1/model/depthwise_conv2d_3/depthwise_model_1/model/conv2d_29/Conv2D_model_1/model/depthwise_conv2d_2/depthwise:0" precision="FP32">
					<dim>1</dim>
					<dim>144</dim>
					<dim>64</dim>
					<dim>64</dim>
				</port>
			</output>
		</layer>
		<layer id="39" name="Conv2D_5/Transpose14049_const" type="Const" version="opset1">
			<data element_type="f32" offset="38560" shape="24,144,1,1" size="13824"/>
			<output>
				<port id="0" names="Conv2D_5/filter:0" precision="FP32">
					<dim>24</dim>
					<dim>144</dim>
					<dim>1</dim>
					<dim>1</dim>
				</port>
			</output>
		</layer>
		<layer id="40" name="Conv2D_5" type="Convolution" version="opset1">
			<data auto_pad="same_upper" dilations="1,1" pads_begin="0,0" pads_end="0,0" strides="1,1"/>
			<input>
				<port id="0">
					<dim>1</dim>
					<dim>144</dim>
					<dim>64</dim>
					<dim>64</dim>
				</port>
				<port id="1">
					<dim>24</dim>
					<dim>144</dim>
					<dim>1</dim>
					<dim>1</dim>
				</port>
			</input>
			<output>
				<port id="2" names="Conv2D_5:0" precision="FP32">
					<dim>1</dim>
					<dim>24</dim>
					<dim>64</dim>
					<dim>64</dim>
				</port>
			</output>
		</layer>
		<layer id="41" name="model_1/model/batch_normalization_8/FusedBatchNormV3_model_1/model/depthwise_conv2d_19/depthwise_model_1/model/conv2d_5/Conv2D1/y/EltwiseUnsqueeze9850_const" type="Const" version="opset1">
			<data element_type="f32" offset="52384" shape="1,24,1,1" size="96"/>
			<output>
				<port id="0" names="model_1/model/batch_normalization_8/FusedBatchNormV3_model_1/model/depthwise_conv2d_19/depthwise_model_1/model/conv2d_5/Conv2D1/y:0" precision="FP32">
					<dim>1</dim>
					<dim>24</dim>
					<dim>1</dim>
					<dim>1</dim>
				</port>
			</output>
		</layer>
		<layer id="42" name="model_1/model/batch_normalization_8/FusedBatchNormV3_model_1/model/depthwise_conv2d_19/depthwise_model_1/model/conv2d_5/Conv2D1" type="Add" version="opset1">
			<data auto_broadcast="numpy"/>
			<input>
				<port id="0">
					<dim>1</dim>
					<dim>24</dim>
					<dim>64</dim>
					<dim>64</dim>
				</port>
				<port id="1">
					<dim>1</dim>
					<dim>24</dim>
					<dim>1</dim>
					<dim>1</dim>
				</port>
			</input>
			<output>
				<port id="2" names="model_1/model/batch_normalization_8/FusedBatchNormV3_model_1/model/depthwise_conv2d_19/depthwise_model_1/model/conv2d_5/Conv2D1:0" precision="FP32">
					<dim>1</dim>
					<dim>24</dim>
					<dim>64</dim>
					<dim>64</dim>
				</port>
			</output>
		</layer>
		<layer id="43" name="model_1/model/add/add" type="Add" version="opset1">
			<data auto_broadcast="numpy"/>
			<input>
				<port id="0">
					<dim>1</dim>
					<dim>24</dim>
					<dim>64</dim>
					<dim>64</dim>
				</port>
				<port id="1">
					<dim>1</dim>
					<dim>24</dim>
					<dim>64</dim>
					<dim>64</dim>
				</port>
			</input>
			<output>
				<port id="2" names="model_1/model/add/add:0" precision="FP32">
					<dim>1</dim>
					<dim>24</dim>
					<dim>64</dim>
					<dim>64</dim>
				</port>
			</output>
		</layer>
		<layer id="44" name="Conv2D_6/Transpose14053_const" type="Const" version="opset1">
			<data element_type="f32" offset="52480" shape="144,24,1,1" size="13824"/>
			<output>
				<port id="0" names="Conv2D_6/filter:0" precision="FP32">
					<dim>144</dim>
					<dim>24</dim>
					<dim>1</dim>
					<dim>1</dim>
				</port>
			</output>
		</layer>
		<layer id="45" name="Conv2D_6" type="Convolution" version="opset1">
			<data auto_pad="same_upper" dilations="1,1" pads_begin="0,0" pads_end="0,0" strides="1,1"/>
			<input>
				<port id="0">
					<dim>1</dim>
					<dim>24</dim>
					<dim>64</dim>
					<dim>64</dim>
				</port>
				<port id="1">
					<dim>144</dim>
					<dim>24</dim>
					<dim>1</dim>
					<dim>1</dim>
				</port>
			</input>
			<output>
				<port id="2" names="Conv2D_6:0" precision="FP32">
					<dim>1</dim>
					<dim>144</dim>
					<dim>64</dim>
					<dim>64</dim>
				</port>
			</output>
		</layer>
		<layer id="46" name="Add_6/y/EltwiseUnsqueeze9854_const" type="Const" version="opset1">
			<data element_type="f32" offset="66304" shape="1,144,1,1" size="576"/>
			<output>
				<port id="0" names="Add_6/y:0" precision="FP32">
					<dim>1</dim>
					<dim>144</dim>
					<dim>1</dim>
					<dim>1</dim>
				</port>
			</output>
		</layer>
		<layer id="47" name="Add_6" type="Add" version="opset1">
			<data auto_broadcast="numpy"/>
			<input>
				<port id="0">
					<dim>1</dim>
					<dim>144</dim>
					<dim>64</dim>
					<dim>64</dim>
				</port>
				<port id="1">
					<dim>1</dim>
					<dim>144</dim>
					<dim>1</dim>
					<dim>1</dim>
				</port>
			</input>
			<output>
				<port id="2" names="Add_6:0" precision="FP32">
					<dim>1</dim>
					<dim>144</dim>
					<dim>64</dim>
					<dim>64</dim>
				</port>
			</output>
		</layer>
		<layer id="48" name="model_1/model/re_lu_6/Relu6_model_1/model/batch_normalization_9/FusedBatchNormV3_model_1/model/batch_normalization_10/FusedBatchNormV3_model_1/model/depthwise_conv2d_3/depthwise_model_1/model/conv2d_29/Conv2D_model_1/model/conv2d_6/Conv2D" type="Clamp" version="opset1">
			<data max="6.0" min="0.0"/>
			<input>
				<port id="0">
					<dim>1</dim>
					<dim>144</dim>
					<dim>64</dim>
					<dim>64</dim>
				</port>
			</input>
			<output>
				<port id="1" names="model_1/model/re_lu_6/Relu6_model_1/model/batch_normalization_9/FusedBatchNormV3_model_1/model/batch_normalization_10/FusedBatchNormV3_model_1/model/depthwise_conv2d_3/depthwise_model_1/model/conv2d_29/Conv2D_model_1/model/conv2d_6/Conv2D:0" precision="FP32">
					<dim>1</dim>
					<dim>144</dim>
					<dim>64</dim>
					<dim>64</dim>
				</port>
			</output>
		</layer>
		<layer id="49" name="2241222415_const" type="Const" version="opset1">
			<data element_type="f32" offset="66880" shape="144,1,1,5,5" size="14400"/>
			<output>
				<port id="0" names="depthwise_3/filter_in:0" precision="FP32">
					<dim>144</dim>
					<dim>1</dim>
					<dim>1</dim>
					<dim>5</dim>
					<dim>5</dim>
				</port>
			</output>
		</layer>
		<layer id="50" name="depthwise_3" type="GroupConvolution" version="opset1">
			<data auto_pad="explicit" dilations="1,1" pads_begin="2,2" pads_end="2,2" strides="2,2"/>
			<input>
				<port id="0">
					<dim>1</dim>
					<dim>144</dim>
					<dim>64</dim>
					<dim>64</dim>
				</port>
				<port id="1">
					<dim>144</dim>
					<dim>1</dim>
					<dim>1</dim>
					<dim>5</dim>
					<dim>5</dim>
				</port>
			</input>
			<output>
				<port id="2" names="depthwise_3:0" precision="FP32">
					<dim>1</dim>
					<dim>144</dim>
					<dim>32</dim>
					<dim>32</dim>
				</port>
			</output>
		</layer>
		<layer id="51" name="Add_7/y/EltwiseUnsqueeze9858_const" type="Const" version="opset1">
			<data element_type="f32" offset="81280" shape="1,144,1,1" size="576"/>
			<output>
				<port id="0" names="Add_7/y:0" precision="FP32">
					<dim>1</dim>
					<dim>144</dim>
					<dim>1</dim>
					<dim>1</dim>
				</port>
			</output>
		</layer>
		<layer id="52" name="Add_7" type="Add" version="opset1">
			<data auto_broadcast="numpy"/>
			<input>
				<port id="0">
					<dim>1</dim>
					<dim>144</dim>
					<dim>32</dim>
					<dim>32</dim>
				</port>
				<port id="1">
					<dim>1</dim>
					<dim>144</dim>
					<dim>1</dim>
					<dim>1</dim>
				</port>
			</input>
			<output>
				<port id="2" names="Add_7:0" precision="FP32">
					<dim>1</dim>
					<dim>144</dim>
					<dim>32</dim>
					<dim>32</dim>
				</port>
			</output>
		</layer>
		<layer id="53" name="model_1/model/re_lu_7/Relu6_model_1/model/batch_normalization_10/FusedBatchNormV3_model_1/model/depthwise_conv2d_3/depthwise_model_1/model/conv2d_29/Conv2D" type="Clamp" version="opset1">
			<data max="6.0" min="0.0"/>
			<input>
				<port id="0">
					<dim>1</dim>
					<dim>144</dim>
					<dim>32</dim>
					<dim>32</dim>
				</port>
			</input>
			<output>
				<port id="1" names="model_1/model/re_lu_7/Relu6_model_1/model/batch_normalization_10/FusedBatchNormV3_model_1/model/depthwise_conv2d_3/depthwise_model_1/model/conv2d_29/Conv2D:0" precision="FP32">
					<dim>1</dim>
					<dim>144</dim>
					<dim>32</dim>
					<dim>32</dim>
				</port>
			</output>
		</layer>
		<layer id="54" name="Conv2D_7/Transpose14061_const" type="Const" version="opset1">
			<data element_type="f32" offset="81856" shape="32,144,1,1" size="18432"/>
			<output>
				<port id="0" names="Conv2D_7/filter:0" precision="FP32">
					<dim>32</dim>
					<dim>144</dim>
					<dim>1</dim>
					<dim>1</dim>
				</port>
			</output>
		</layer>
		<layer id="55" name="Conv2D_7" type="Convolution" version="opset1">
			<data auto_pad="same_upper" dilations="1,1" pads_begin="0,0" pads_end="0,0" strides="1,1"/>
			<input>
				<port id="0">
					<dim>1</dim>
					<dim>144</dim>
					<dim>32</dim>
					<dim>32</dim>
				</port>
				<port id="1">
					<dim>32</dim>
					<dim>144</dim>
					<dim>1</dim>
					<dim>1</dim>
				</port>
			</input>
			<output>
				<port id="2" names="Conv2D_7:0" precision="FP32">
					<dim>1</dim>
					<dim>32</dim>
					<dim>32</dim>
					<dim>32</dim>
				</port>
			</output>
		</layer>
		<layer id="56" name="model_1/model/batch_normalization_11/FusedBatchNormV3_model_1/model/depthwise_conv2d_18/depthwise_model_1/model/conv2d_7/Conv2D1/y/EltwiseUnsqueeze9862_const" type="Const" version="opset1">
			<data element_type="f32" offset="100288" shape="1,32,1,1" size="128"/>
			<output>
				<port id="0" names="model_1/model/batch_normalization_11/FusedBatchNormV3_model_1/model/depthwise_conv2d_18/depthwise_model_1/model/conv2d_7/Conv2D1/y:0" precision="FP32">
					<dim>1</dim>
					<dim>32</dim>
					<dim>1</dim>
					<dim>1</dim>
				</port>
			</output>
		</layer>
		<layer id="57" name="model_1/model/batch_normalization_11/FusedBatchNormV3_model_1/model/depthwise_conv2d_18/depthwise_model_1/model/conv2d_7/Conv2D1" type="Add" version="opset1">
			<data auto_broadcast="numpy"/>
			<input>
				<port id="0">
					<dim>1</dim>
					<dim>32</dim>
					<dim>32</dim>
					<dim>32</dim>
				</port>
				<port id="1">
					<dim>1</dim>
					<dim>32</dim>
					<dim>1</dim>
					<dim>1</dim>
				</port>
			</input>
			<output>
				<port id="2" names="model_1/model/batch_normalization_11/FusedBatchNormV3_model_1/model/depthwise_conv2d_18/depthwise_model_1/model/conv2d_7/Conv2D1:0" precision="FP32">
					<dim>1</dim>
					<dim>32</dim>
					<dim>32</dim>
					<dim>32</dim>
				</port>
			</output>
		</layer>
		<layer id="58" name="Conv2D_8/Transpose14065_const" type="Const" version="opset1">
			<data element_type="f32" offset="100416" shape="192,32,1,1" size="24576"/>
			<output>
				<port id="0" names="Conv2D_8/filter:0" precision="FP32">
					<dim>192</dim>
					<dim>32</dim>
					<dim>1</dim>
					<dim>1</dim>
				</port>
			</output>
		</layer>
		<layer id="59" name="Conv2D_8" type="Convolution" version="opset1">
			<data auto_pad="same_upper" dilations="1,1" pads_begin="0,0" pads_end="0,0" strides="1,1"/>
			<input>
				<port id="0">
					<dim>1</dim>
					<dim>32</dim>
					<dim>32</dim>
					<dim>32</dim>
				</port>
				<port id="1">
					<dim>192</dim>
					<dim>32</dim>
					<dim>1</dim>
					<dim>1</dim>
				</port>
			</input>
			<output>
				<port id="2" names="Conv2D_8:0" precision="FP32">
					<dim>1</dim>
					<dim>192</dim>
					<dim>32</dim>
					<dim>32</dim>
				</port>
			</output>
		</layer>
		<layer id="60" name="Add_8/y/EltwiseUnsqueeze9866_const" type="Const" version="opset1">
			<data element_type="f32" offset="124992" shape="1,192,1,1" size="768"/>
			<output>
				<port id="0" names="Add_8/y:0" precision="FP32">
					<dim>1</dim>
					<dim>192</dim>
					<dim>1</dim>
					<dim>1</dim>
				</port>
			</output>
		</layer>
		<layer id="61" name="Add_8" type="Add" version="opset1">
			<data auto_broadcast="numpy"/>
			<input>
				<port id="0">
					<dim>1</dim>
					<dim>192</dim>
					<dim>32</dim>
					<dim>32</dim>
				</port>
				<port id="1">
					<dim>1</dim>
					<dim>192</dim>
					<dim>1</dim>
					<dim>1</dim>
				</port>
			</input>
			<output>
				<port id="2" names="Add_8:0" precision="FP32">
					<dim>1</dim>
					<dim>192</dim>
					<dim>32</dim>
					<dim>32</dim>
				</port>
			</output>
		</layer>
		<layer id="62" name="model_1/model/re_lu_8/Relu6_model_1/model/batch_normalization_12/FusedBatchNormV3_model_1/model/batch_normalization_16/FusedBatchNormV3_model_1/model/depthwise_conv2d_5/depthwise_model_1/model/conv2d_8/Conv2D" type="Clamp" version="opset1">
			<data max="6.0" min="0.0"/>
			<input>
				<port id="0">
					<dim>1</dim>
					<dim>192</dim>
					<dim>32</dim>
					<dim>32</dim>
				</port>
			</input>
			<output>
				<port id="1" names="model_1/model/re_lu_8/Relu6_model_1/model/batch_normalization_12/FusedBatchNormV3_model_1/model/batch_normalization_16/FusedBatchNormV3_model_1/model/depthwise_conv2d_5/depthwise_model_1/model/conv2d_8/Conv2D:0" precision="FP32">
					<dim>1</dim>
					<dim>192</dim>
					<dim>32</dim>
					<dim>32</dim>
				</port>
			</output>
		</layer>
		<layer id="63" name="2249622499_const" type="Const" version="opset1">
			<data element_type="f32" offset="125760" shape="192,1,1,5,5" size="19200"/>
			<output>
				<port id="0" names="depthwise_4/filter_in:0" precision="FP32">
					<dim>192</dim>
					<dim>1</dim>
					<dim>1</dim>
					<dim>5</dim>
					<dim>5</dim>
				</port>
			</output>
		</layer>
		<layer id="64" name="depthwise_4" type="GroupConvolution" version="opset1">
			<data auto_pad="same_upper" dilations="1,1" pads_begin="0,0" pads_end="0,0" strides="1,1"/>
			<input>
				<port id="0">
					<dim>1</dim>
					<dim>192</dim>
					<dim>32</dim>
					<dim>32</dim>
				</port>
				<port id="1">
					<dim>192</dim>
					<dim>1</dim>
					<dim>1</dim>
					<dim>5</dim>
					<dim>5</dim>
				</port>
			</input>
			<output>
				<port id="2" names="depthwise_4:0" precision="FP32">
					<dim>1</dim>
					<dim>192</dim>
					<dim>32</dim>
					<dim>32</dim>
				</port>
			</output>
		</layer>
		<layer id="65" name="Add_9/y/EltwiseUnsqueeze9870_const" type="Const" version="opset1">
			<data element_type="f32" offset="144960" shape="1,192,1,1" size="768"/>
			<output>
				<port id="0" names="Add_9/y:0" precision="FP32">
					<dim>1</dim>
					<dim>192</dim>
					<dim>1</dim>
					<dim>1</dim>
				</port>
			</output>
		</layer>
		<layer id="66" name="Add_9" type="Add" version="opset1">
			<data auto_broadcast="numpy"/>
			<input>
				<port id="0">
					<dim>1</dim>
					<dim>192</dim>
					<dim>32</dim>
					<dim>32</dim>
				</port>
				<port id="1">
					<dim>1</dim>
					<dim>192</dim>
					<dim>1</dim>
					<dim>1</dim>
				</port>
			</input>
			<output>
				<port id="2" names="Add_9:0" precision="FP32">
					<dim>1</dim>
					<dim>192</dim>
					<dim>32</dim>
					<dim>32</dim>
				</port>
			</output>
		</layer>
		<layer id="67" name="model_1/model/re_lu_9/Relu6_model_1/model/batch_normalization_13/FusedBatchNormV3_model_1/model/depthwise_conv2d_4/depthwise_model_1/model/depthwise_conv2d_5/depthwise" type="Clamp" version="opset1">
			<data max="6.0" min="0.0"/>
			<input>
				<port id="0">
					<dim>1</dim>
					<dim>192</dim>
					<dim>32</dim>
					<dim>32</dim>
				</port>
			</input>
			<output>
				<port id="1" names="model_1/model/re_lu_9/Relu6_model_1/model/batch_normalization_13/FusedBatchNormV3_model_1/model/depthwise_conv2d_4/depthwise_model_1/model/depthwise_conv2d_5/depthwise:0" precision="FP32">
					<dim>1</dim>
					<dim>192</dim>
					<dim>32</dim>
					<dim>32</dim>
				</port>
			</output>
		</layer>
		<layer id="68" name="Conv2D_9/Transpose14073_const" type="Const" version="opset1">
			<data element_type="f32" offset="145728" shape="32,192,1,1" size="24576"/>
			<output>
				<port id="0" names="Conv2D_9/filter:0" precision="FP32">
					<dim>32</dim>
					<dim>192</dim>
					<dim>1</dim>
					<dim>1</dim>
				</port>
			</output>
		</layer>
		<layer id="69" name="Conv2D_9" type="Convolution" version="opset1">
			<data auto_pad="same_upper" dilations="1,1" pads_begin="0,0" pads_end="0,0" strides="1,1"/>
			<input>
				<port id="0">
					<dim>1</dim>
					<dim>192</dim>
					<dim>32</dim>
					<dim>32</dim>
				</port>
				<port id="1">
					<dim>32</dim>
					<dim>192</dim>
					<dim>1</dim>
					<dim>1</dim>
				</port>
			</input>
			<output>
				<port id="2" names="Conv2D_9:0" precision="FP32">
					<dim>1</dim>
					<dim>32</dim>
					<dim>32</dim>
					<dim>32</dim>
				</port>
			</output>
		</layer>
		<layer id="70" name="model_1/model/batch_normalization_14/FusedBatchNormV3_model_1/model/depthwise_conv2d_18/depthwise_model_1/model/conv2d_9/Conv2D1/y/EltwiseUnsqueeze9874_const" type="Const" version="opset1">
			<data element_type="f32" offset="170304" shape="1,32,1,1" size="128"/>
			<output>
				<port id="0" names="model_1/model/batch_normalization_14/FusedBatchNormV3_model_1/model/depthwise_conv2d_18/depthwise_model_1/model/conv2d_9/Conv2D1/y:0" precision="FP32">
					<dim>1</dim>
					<dim>32</dim>
					<dim>1</dim>
					<dim>1</dim>
				</port>
			</output>
		</layer>
		<layer id="71" name="model_1/model/batch_normalization_14/FusedBatchNormV3_model_1/model/depthwise_conv2d_18/depthwise_model_1/model/conv2d_9/Conv2D1" type="Add" version="opset1">
			<data auto_broadcast="numpy"/>
			<input>
				<port id="0">
					<dim>1</dim>
					<dim>32</dim>
					<dim>32</dim>
					<dim>32</dim>
				</port>
				<port id="1">
					<dim>1</dim>
					<dim>32</dim>
					<dim>1</dim>
					<dim>1</dim>
				</port>
			</input>
			<output>
				<port id="2" names="model_1/model/batch_normalization_14/FusedBatchNormV3_model_1/model/depthwise_conv2d_18/depthwise_model_1/model/conv2d_9/Conv2D1:0" precision="FP32">
					<dim>1</dim>
					<dim>32</dim>
					<dim>32</dim>
					<dim>32</dim>
				</port>
			</output>
		</layer>
		<layer id="72" name="model_1/model/add_1/add" type="Add" version="opset1">
			<data auto_broadcast="numpy"/>
			<input>
				<port id="0">
					<dim>1</dim>
					<dim>32</dim>
					<dim>32</dim>
					<dim>32</dim>
				</port>
				<port id="1">
					<dim>1</dim>
					<dim>32</dim>
					<dim>32</dim>
					<dim>32</dim>
				</port>
			</input>
			<output>
				<port id="2" names="model_1/model/add_1/add:0" precision="FP32">
					<dim>1</dim>
					<dim>32</dim>
					<dim>32</dim>
					<dim>32</dim>
				</port>
			</output>
		</layer>
		<layer id="73" name="Conv2D_10/Transpose14077_const" type="Const" version="opset1">
			<data element_type="f32" offset="170432" shape="192,32,1,1" size="24576"/>
			<output>
				<port id="0" names="Conv2D_10/filter:0" precision="FP32">
					<dim>192</dim>
					<dim>32</dim>
					<dim>1</dim>
					<dim>1</dim>
				</port>
			</output>
		</layer>
		<layer id="74" name="Conv2D_10" type="Convolution" version="opset1">
			<data auto_pad="same_upper" dilations="1,1" pads_begin="0,0" pads_end="0,0" strides="1,1"/>
			<input>
				<port id="0">
					<dim>1</dim>
					<dim>32</dim>
					<dim>32</dim>
					<dim>32</dim>
				</port>
				<port id="1">
					<dim>192</dim>
					<dim>32</dim>
					<dim>1</dim>
					<dim>1</dim>
				</port>
			</input>
			<output>
				<port id="2" names="Conv2D_10:0" precision="FP32">
					<dim>1</dim>
					<dim>192</dim>
					<dim>32</dim>
					<dim>32</dim>
				</port>
			</output>
		</layer>
		<layer id="75" name="Add_10/y/EltwiseUnsqueeze9878_const" type="Const" version="opset1">
			<data element_type="f32" offset="195008" shape="1,192,1,1" size="768"/>
			<output>
				<port id="0" names="Add_10/y:0" precision="FP32">
					<dim>1</dim>
					<dim>192</dim>
					<dim>1</dim>
					<dim>1</dim>
				</port>
			</output>
		</layer>
		<layer id="76" name="Add_10" type="Add" version="opset1">
			<data auto_broadcast="numpy"/>
			<input>
				<port id="0">
					<dim>1</dim>
					<dim>192</dim>
					<dim>32</dim>
					<dim>32</dim>
				</port>
				<port id="1">
					<dim>1</dim>
					<dim>192</dim>
					<dim>1</dim>
					<dim>1</dim>
				</port>
			</input>
			<output>
				<port id="2" names="Add_10:0" precision="FP32">
					<dim>1</dim>
					<dim>192</dim>
					<dim>32</dim>
					<dim>32</dim>
				</port>
			</output>
		</layer>
		<layer id="77" name="model_1/model/re_lu_10/Relu6_model_1/model/batch_normalization_15/FusedBatchNormV3_model_1/model/batch_normalization_16/FusedBatchNormV3_model_1/model/depthwise_conv2d_5/depthwise_model_1/model/conv2d_10/Conv2D" type="Clamp" version="opset1">
			<data max="6.0" min="0.0"/>
			<input>
				<port id="0">
					<dim>1</dim>
					<dim>192</dim>
					<dim>32</dim>
					<dim>32</dim>
				</port>
			</input>
			<output>
				<port id="1" names="model_1/model/re_lu_10/Relu6_model_1/model/batch_normalization_15/FusedBatchNormV3_model_1/model/batch_normalization_16/FusedBatchNormV3_model_1/model/depthwise_conv2d_5/depthwise_model_1/model/conv2d_10/Conv2D:0" precision="FP32">
					<dim>1</dim>
					<dim>192</dim>
					<dim>32</dim>
					<dim>32</dim>
				</port>
			</output>
		</layer>
		<layer id="78" name="2243222435_const" type="Const" version="opset1">
			<data element_type="f32" offset="195776" shape="192,1,1,3,3" size="6912"/>
			<output>
				<port id="0" names="depthwise_5/filter_in:0" precision="FP32">
					<dim>192</dim>
					<dim>1</dim>
					<dim>1</dim>
					<dim>3</dim>
					<dim>3</dim>
				</port>
			</output>
		</layer>
		<layer id="79" name="depthwise_5" type="GroupConvolution" version="opset1">
			<data auto_pad="explicit" dilations="1,1" pads_begin="1,1" pads_end="1,1" strides="2,2"/>
			<input>
				<port id="0">
					<dim>1</dim>
					<dim>192</dim>
					<dim>32</dim>
					<dim>32</dim>
				</port>
				<port id="1">
					<dim>192</dim>
					<dim>1</dim>
					<dim>1</dim>
					<dim>3</dim>
					<dim>3</dim>
				</port>
			</input>
			<output>
				<port id="2" names="depthwise_5:0" precision="FP32">
					<dim>1</dim>
					<dim>192</dim>
					<dim>16</dim>
					<dim>16</dim>
				</port>
			</output>
		</layer>
		<layer id="80" name="Add_11/y/EltwiseUnsqueeze9882_const" type="Const" version="opset1">
			<data element_type="f32" offset="202688" shape="1,192,1,1" size="768"/>
			<output>
				<port id="0" names="Add_11/y:0" precision="FP32">
					<dim>1</dim>
					<dim>192</dim>
					<dim>1</dim>
					<dim>1</dim>
				</port>
			</output>
		</layer>
		<layer id="81" name="Add_11" type="Add" version="opset1">
			<data auto_broadcast="numpy"/>
			<input>
				<port id="0">
					<dim>1</dim>
					<dim>192</dim>
					<dim>16</dim>
					<dim>16</dim>
				</port>
				<port id="1">
					<dim>1</dim>
					<dim>192</dim>
					<dim>1</dim>
					<dim>1</dim>
				</port>
			</input>
			<output>
				<port id="2" names="Add_11:0" precision="FP32">
					<dim>1</dim>
					<dim>192</dim>
					<dim>16</dim>
					<dim>16</dim>
				</port>
			</output>
		</layer>
		<layer id="82" name="model_1/model/re_lu_11/Relu6_model_1/model/batch_normalization_16/FusedBatchNormV3_model_1/model/depthwise_conv2d_5/depthwise" type="Clamp" version="opset1">
			<data max="6.0" min="0.0"/>
			<input>
				<port id="0">
					<dim>1</dim>
					<dim>192</dim>
					<dim>16</dim>
					<dim>16</dim>
				</port>
			</input>
			<output>
				<port id="1" names="model_1/model/re_lu_11/Relu6_model_1/model/batch_normalization_16/FusedBatchNormV3_model_1/model/depthwise_conv2d_5/depthwise:0" precision="FP32">
					<dim>1</dim>
					<dim>192</dim>
					<dim>16</dim>
					<dim>16</dim>
				</port>
			</output>
		</layer>
		<layer id="83" name="Conv2D_11/Transpose14085_const" type="Const" version="opset1">
			<data element_type="f32" offset="203456" shape="64,192,1,1" size="49152"/>
			<output>
				<port id="0" names="Conv2D_11/filter:0" precision="FP32">
					<dim>64</dim>
					<dim>192</dim>
					<dim>1</dim>
					<dim>1</dim>
				</port>
			</output>
		</layer>
		<layer id="84" name="Conv2D_11" type="Convolution" version="opset1">
			<data auto_pad="same_upper" dilations="1,1" pads_begin="0,0" pads_end="0,0" strides="1,1"/>
			<input>
				<port id="0">
					<dim>1</dim>
					<dim>192</dim>
					<dim>16</dim>
					<dim>16</dim>
				</port>
				<port id="1">
					<dim>64</dim>
					<dim>192</dim>
					<dim>1</dim>
					<dim>1</dim>
				</port>
			</input>
			<output>
				<port id="2" names="Conv2D_11:0" precision="FP32">
					<dim>1</dim>
					<dim>64</dim>
					<dim>16</dim>
					<dim>16</dim>
				</port>
			</output>
		</layer>
		<layer id="85" name="model_1/model/batch_normalization_17/FusedBatchNormV3_model_1/model/conv2d_15/Conv2D_model_1/model/conv2d_11/Conv2D1/y/EltwiseUnsqueeze9886_const" type="Const" version="opset1">
			<data element_type="f32" offset="252608" shape="1,64,1,1" size="256"/>
			<output>
				<port id="0" names="model_1/model/batch_normalization_17/FusedBatchNormV3_model_1/model/conv2d_15/Conv2D_model_1/model/conv2d_11/Conv2D1/y:0" precision="FP32">
					<dim>1</dim>
					<dim>64</dim>
					<dim>1</dim>
					<dim>1</dim>
				</port>
			</output>
		</layer>
		<layer id="86" name="model_1/model/batch_normalization_17/FusedBatchNormV3_model_1/model/conv2d_15/Conv2D_model_1/model/conv2d_11/Conv2D1" type="Add" version="opset1">
			<data auto_broadcast="numpy"/>
			<input>
				<port id="0">
					<dim>1</dim>
					<dim>64</dim>
					<dim>16</dim>
					<dim>16</dim>
				</port>
				<port id="1">
					<dim>1</dim>
					<dim>64</dim>
					<dim>1</dim>
					<dim>1</dim>
				</port>
			</input>
			<output>
				<port id="2" names="model_1/model/batch_normalization_17/FusedBatchNormV3_model_1/model/conv2d_15/Conv2D_model_1/model/conv2d_11/Conv2D1:0" precision="FP32">
					<dim>1</dim>
					<dim>64</dim>
					<dim>16</dim>
					<dim>16</dim>
				</port>
			</output>
		</layer>
		<layer id="87" name="Conv2D_12/Transpose14089_const" type="Const" version="opset1">
			<data element_type="f32" offset="252864" shape="384,64,1,1" size="98304"/>
			<output>
				<port id="0" names="Conv2D_12/filter:0" precision="FP32">
					<dim>384</dim>
					<dim>64</dim>
					<dim>1</dim>
					<dim>1</dim>
				</port>
			</output>
		</layer>
		<layer id="88" name="Conv2D_12" type="Convolution" version="opset1">
			<data auto_pad="same_upper" dilations="1,1" pads_begin="0,0" pads_end="0,0" strides="1,1"/>
			<input>
				<port id="0">
					<dim>1</dim>
					<dim>64</dim>
					<dim>16</dim>
					<dim>16</dim>
				</port>
				<port id="1">
					<dim>384</dim>
					<dim>64</dim>
					<dim>1</dim>
					<dim>1</dim>
				</port>
			</input>
			<output>
				<port id="2" names="Conv2D_12:0" precision="FP32">
					<dim>1</dim>
					<dim>384</dim>
					<dim>16</dim>
					<dim>16</dim>
				</port>
			</output>
		</layer>
		<layer id="89" name="Add_12/y/EltwiseUnsqueeze9890_const" type="Const" version="opset1">
			<data element_type="f32" offset="351168" shape="1,384,1,1" size="1536"/>
			<output>
				<port id="0" names="Add_12/y:0" precision="FP32">
					<dim>1</dim>
					<dim>384</dim>
					<dim>1</dim>
					<dim>1</dim>
				</port>
			</output>
		</layer>
		<layer id="90" name="Add_12" type="Add" version="opset1">
			<data auto_broadcast="numpy"/>
			<input>
				<port id="0">
					<dim>1</dim>
					<dim>384</dim>
					<dim>16</dim>
					<dim>16</dim>
				</port>
				<port id="1">
					<dim>1</dim>
					<dim>384</dim>
					<dim>1</dim>
					<dim>1</dim>
				</port>
			</input>
			<output>
				<port id="2" names="Add_12:0" precision="FP32">
					<dim>1</dim>
					<dim>384</dim>
					<dim>16</dim>
					<dim>16</dim>
				</port>
			</output>
		</layer>
		<layer id="91" name="model_1/model/re_lu_12/Relu6_model_1/model/batch_normalization_18/FusedBatchNormV3_model_1/model/batch_normalization_25/FusedBatchNormV3_model_1/model/depthwise_conv2d_8/depthwise_model_1/model/conv2d_12/Conv2D" type="Clamp" version="opset1">
			<data max="6.0" min="0.0"/>
			<input>
				<port id="0">
					<dim>1</dim>
					<dim>384</dim>
					<dim>16</dim>
					<dim>16</dim>
				</port>
			</input>
			<output>
				<port id="1" names="model_1/model/re_lu_12/Relu6_model_1/model/batch_normalization_18/FusedBatchNormV3_model_1/model/batch_normalization_25/FusedBatchNormV3_model_1/model/depthwise_conv2d_8/depthwise_model_1/model/conv2d_12/Conv2D:0" precision="FP32">
					<dim>1</dim>
					<dim>384</dim>
					<dim>16</dim>
					<dim>16</dim>
				</port>
			</output>
		</layer>
		<layer id="92" name="2244422447_const" type="Const" version="opset1">
			<data element_type="f32" offset="352704" shape="384,1,1,3,3" size="13824"/>
			<output>
				<port id="0" names="depthwise_6/filter_in:0" precision="FP32">
					<dim>384</dim>
					<dim>1</dim>
					<dim>1</dim>
					<dim>3</dim>
					<dim>3</dim>
				</port>
			</output>
		</layer>
		<layer id="93" name="depthwise_6" type="GroupConvolution" version="opset1">
			<data auto_pad="same_upper" dilations="1,1" pads_begin="0,0" pads_end="0,0" strides="1,1"/>
			<input>
				<port id="0">
					<dim>1</dim>
					<dim>384</dim>
					<dim>16</dim>
					<dim>16</dim>
				</port>
				<port id="1">
					<dim>384</dim>
					<dim>1</dim>
					<dim>1</dim>
					<dim>3</dim>
					<dim>3</dim>
				</port>
			</input>
			<output>
				<port id="2" names="depthwise_6:0" precision="FP32">
					<dim>1</dim>
					<dim>384</dim>
					<dim>16</dim>
					<dim>16</dim>
				</port>
			</output>
		</layer>
		<layer id="94" name="Add_13/y/EltwiseUnsqueeze9894_const" type="Const" version="opset1">
			<data element_type="f32" offset="366528" shape="1,384,1,1" size="1536"/>
			<output>
				<port id="0" names="Add_13/y:0" precision="FP32">
					<dim>1</dim>
					<dim>384</dim>
					<dim>1</dim>
					<dim>1</dim>
				</port>
			</output>
		</layer>
		<layer id="95" name="Add_13" type="Add" version="opset1">
			<data auto_broadcast="numpy"/>
			<input>
				<port id="0">
					<dim>1</dim>
					<dim>384</dim>
					<dim>16</dim>
					<dim>16</dim>
				</port>
				<port id="1">
					<dim>1</dim>
					<dim>384</dim>
					<dim>1</dim>
					<dim>1</dim>
				</port>
			</input>
			<output>
				<port id="2" names="Add_13:0" precision="FP32">
					<dim>1</dim>
					<dim>384</dim>
					<dim>16</dim>
					<dim>16</dim>
				</port>
			</output>
		</layer>
		<layer id="96" name="model_1/model/re_lu_13/Relu6_model_1/model/batch_normalization_19/FusedBatchNormV3_model_1/model/depthwise_conv2d_6/depthwise_model_1/model/depthwise_conv2d_8/depthwise" type="Clamp" version="opset1">
			<data max="6.0" min="0.0"/>
			<input>
				<port id="0">
					<dim>1</dim>
					<dim>384</dim>
					<dim>16</dim>
					<dim>16</dim>
				</port>
			</input>
			<output>
				<port id="1" names="model_1/model/re_lu_13/Relu6_model_1/model/batch_normalization_19/FusedBatchNormV3_model_1/model/depthwise_conv2d_6/depthwise_model_1/model/depthwise_conv2d_8/depthwise:0" precision="FP32">
					<dim>1</dim>
					<dim>384</dim>
					<dim>16</dim>
					<dim>16</dim>
				</port>
			</output>
		</layer>
		<layer id="97" name="Conv2D_13/Transpose14097_const" type="Const" version="opset1">
			<data element_type="f32" offset="368064" shape="64,384,1,1" size="98304"/>
			<output>
				<port id="0" names="Conv2D_13/filter:0" precision="FP32">
					<dim>64</dim>
					<dim>384</dim>
					<dim>1</dim>
					<dim>1</dim>
				</port>
			</output>
		</layer>
		<layer id="98" name="Conv2D_13" type="Convolution" version="opset1">
			<data auto_pad="same_upper" dilations="1,1" pads_begin="0,0" pads_end="0,0" strides="1,1"/>
			<input>
				<port id="0">
					<dim>1</dim>
					<dim>384</dim>
					<dim>16</dim>
					<dim>16</dim>
				</port>
				<port id="1">
					<dim>64</dim>
					<dim>384</dim>
					<dim>1</dim>
					<dim>1</dim>
				</port>
			</input>
			<output>
				<port id="2" names="Conv2D_13:0" precision="FP32">
					<dim>1</dim>
					<dim>64</dim>
					<dim>16</dim>
					<dim>16</dim>
				</port>
			</output>
		</layer>
		<layer id="99" name="model_1/model/batch_normalization_20/FusedBatchNormV3_model_1/model/conv2d_15/Conv2D_model_1/model/conv2d_13/Conv2D1/y/EltwiseUnsqueeze9898_const" type="Const" version="opset1">
			<data element_type="f32" offset="466368" shape="1,64,1,1" size="256"/>
			<output>
				<port id="0" names="model_1/model/batch_normalization_20/FusedBatchNormV3_model_1/model/conv2d_15/Conv2D_model_1/model/conv2d_13/Conv2D1/y:0" precision="FP32">
					<dim>1</dim>
					<dim>64</dim>
					<dim>1</dim>
					<dim>1</dim>
				</port>
			</output>
		</layer>
		<layer id="100" name="model_1/model/batch_normalization_20/FusedBatchNormV3_model_1/model/conv2d_15/Conv2D_model_1/model/conv2d_13/Conv2D1" type="Add" version="opset1">
			<data auto_broadcast="numpy"/>
			<input>
				<port id="0">
					<dim>1</dim>
					<dim>64</dim>
					<dim>16</dim>
					<dim>16</dim>
				</port>
				<port id="1">
					<dim>1</dim>
					<dim>64</dim>
					<dim>1</dim>
					<dim>1</dim>
				</port>
			</input>
			<output>
				<port id="2" names="model_1/model/batch_normalization_20/FusedBatchNormV3_model_1/model/conv2d_15/Conv2D_model_1/model/conv2d_13/Conv2D1:0" precision="FP32">
					<dim>1</dim>
					<dim>64</dim>
					<dim>16</dim>
					<dim>16</dim>
				</port>
			</output>
		</layer>
		<layer id="101" name="model_1/model/add_2/add" type="Add" version="opset1">
			<data auto_broadcast="numpy"/>
			<input>
				<port id="0">
					<dim>1</dim>
					<dim>64</dim>
					<dim>16</dim>
					<dim>16</dim>
				</port>
				<port id="1">
					<dim>1</dim>
					<dim>64</dim>
					<dim>16</dim>
					<dim>16</dim>
				</port>
			</input>
			<output>
				<port id="2" names="model_1/model/add_2/add:0" precision="FP32">
					<dim>1</dim>
					<dim>64</dim>
					<dim>16</dim>
					<dim>16</dim>
				</port>
			</output>
		</layer>
		<layer id="102" name="Conv2D_14/Transpose14101_const" type="Const" version="opset1">
			<data element_type="f32" offset="466624" shape="384,64,1,1" size="98304"/>
			<output>
				<port id="0" names="Conv2D_14/filter:0" precision="FP32">
					<dim>384</dim>
					<dim>64</dim>
					<dim>1</dim>
					<dim>1</dim>
				</port>
			</output>
		</layer>
		<layer id="103" name="Conv2D_14" type="Convolution" version="opset1">
			<data auto_pad="same_upper" dilations="1,1" pads_begin="0,0" pads_end="0,0" strides="1,1"/>
			<input>
				<port id="0">
					<dim>1</dim>
					<dim>64</dim>
					<dim>16</dim>
					<dim>16</dim>
				</port>
				<port id="1">
					<dim>384</dim>
					<dim>64</dim>
					<dim>1</dim>
					<dim>1</dim>
				</port>
			</input>
			<output>
				<port id="2" names="Conv2D_14:0" precision="FP32">
					<dim>1</dim>
					<dim>384</dim>
					<dim>16</dim>
					<dim>16</dim>
				</port>
			</output>
		</layer>
		<layer id="104" name="Add_14/y/EltwiseUnsqueeze9902_const" type="Const" version="opset1">
			<data element_type="f32" offset="564928" shape="1,384,1,1" size="1536"/>
			<output>
				<port id="0" names="Add_14/y:0" precision="FP32">
					<dim>1</dim>
					<dim>384</dim>
					<dim>1</dim>
					<dim>1</dim>
				</port>
			</output>
		</layer>
		<layer id="105" name="Add_14" type="Add" version="opset1">
			<data auto_broadcast="numpy"/>
			<input>
				<port id="0">
					<dim>1</dim>
					<dim>384</dim>
					<dim>16</dim>
					<dim>16</dim>
				</port>
				<port id="1">
					<dim>1</dim>
					<dim>384</dim>
					<dim>1</dim>
					<dim>1</dim>
				</port>
			</input>
			<output>
				<port id="2" names="Add_14:0" precision="FP32">
					<dim>1</dim>
					<dim>384</dim>
					<dim>16</dim>
					<dim>16</dim>
				</port>
			</output>
		</layer>
		<layer id="106" name="model_1/model/re_lu_14/Relu6_model_1/model/batch_normalization_21/FusedBatchNormV3_model_1/model/batch_normalization_25/FusedBatchNormV3_model_1/model/depthwise_conv2d_8/depthwise_model_1/model/conv2d_14/Conv2D" type="Clamp" version="opset1">
			<data max="6.0" min="0.0"/>
			<input>
				<port id="0">
					<dim>1</dim>
					<dim>384</dim>
					<dim>16</dim>
					<dim>16</dim>
				</port>
			</input>
			<output>
				<port id="1" names="model_1/model/re_lu_14/Relu6_model_1/model/batch_normalization_21/FusedBatchNormV3_model_1/model/batch_normalization_25/FusedBatchNormV3_model_1/model/depthwise_conv2d_8/depthwise_model_1/model/conv2d_14/Conv2D:0" precision="FP32">
					<dim>1</dim>
					<dim>384</dim>
					<dim>16</dim>
					<dim>16</dim>
				</port>
			</output>
		</layer>
		<layer id="107" name="2242022423_const" type="Const" version="opset1">
			<data element_type="f32" offset="566464" shape="384,1,1,3,3" size="13824"/>
			<output>
				<port id="0" names="depthwise_7/filter_in:0" precision="FP32">
					<dim>384</dim>
					<dim>1</dim>
					<dim>1</dim>
					<dim>3</dim>
					<dim>3</dim>
				</port>
			</output>
		</layer>
		<layer id="108" name="depthwise_7" type="GroupConvolution" version="opset1">
			<data auto_pad="same_upper" dilations="1,1" pads_begin="0,0" pads_end="0,0" strides="1,1"/>
			<input>
				<port id="0">
					<dim>1</dim>
					<dim>384</dim>
					<dim>16</dim>
					<dim>16</dim>
				</port>
				<port id="1">
					<dim>384</dim>
					<dim>1</dim>
					<dim>1</dim>
					<dim>3</dim>
					<dim>3</dim>
				</port>
			</input>
			<output>
				<port id="2" names="depthwise_7:0" precision="FP32">
					<dim>1</dim>
					<dim>384</dim>
					<dim>16</dim>
					<dim>16</dim>
				</port>
			</output>
		</layer>
		<layer id="109" name="Add_15/y/EltwiseUnsqueeze9906_const" type="Const" version="opset1">
			<data element_type="f32" offset="580288" shape="1,384,1,1" size="1536"/>
			<output>
				<port id="0" names="Add_15/y:0" precision="FP32">
					<dim>1</dim>
					<dim>384</dim>
					<dim>1</dim>
					<dim>1</dim>
				</port>
			</output>
		</layer>
		<layer id="110" name="Add_15" type="Add" version="opset1">
			<data auto_broadcast="numpy"/>
			<input>
				<port id="0">
					<dim>1</dim>
					<dim>384</dim>
					<dim>16</dim>
					<dim>16</dim>
				</port>
				<port id="1">
					<dim>1</dim>
					<dim>384</dim>
					<dim>1</dim>
					<dim>1</dim>
				</port>
			</input>
			<output>
				<port id="2" names="Add_15:0" precision="FP32">
					<dim>1</dim>
					<dim>384</dim>
					<dim>16</dim>
					<dim>16</dim>
				</port>
			</output>
		</layer>
		<layer id="111" name="model_1/model/re_lu_15/Relu6_model_1/model/batch_normalization_22/FusedBatchNormV3_model_1/model/depthwise_conv2d_7/depthwise_model_1/model/depthwise_conv2d_8/depthwise" type="Clamp" version="opset1">
			<data max="6.0" min="0.0"/>
			<input>
				<port id="0">
					<dim>1</dim>
					<dim>384</dim>
					<dim>16</dim>
					<dim>16</dim>
				</port>
			</input>
			<output>
				<port id="1" names="model_1/model/re_lu_15/Relu6_model_1/model/batch_normalization_22/FusedBatchNormV3_model_1/model/depthwise_conv2d_7/depthwise_model_1/model/depthwise_conv2d_8/depthwise:0" precision="FP32">
					<dim>1</dim>
					<dim>384</dim>
					<dim>16</dim>
					<dim>16</dim>
				</port>
			</output>
		</layer>
		<layer id="112" name="Conv2D_15/Transpose14109_const" type="Const" version="opset1">
			<data element_type="f32" offset="581824" shape="64,384,1,1" size="98304"/>
			<output>
				<port id="0" names="Conv2D_15/filter:0" precision="FP32">
					<dim>64</dim>
					<dim>384</dim>
					<dim>1</dim>
					<dim>1</dim>
				</port>
			</output>
		</layer>
		<layer id="113" name="Conv2D_15" type="Convolution" version="opset1">
			<data auto_pad="same_upper" dilations="1,1" pads_begin="0,0" pads_end="0,0" strides="1,1"/>
			<input>
				<port id="0">
					<dim>1</dim>
					<dim>384</dim>
					<dim>16</dim>
					<dim>16</dim>
				</port>
				<port id="1">
					<dim>64</dim>
					<dim>384</dim>
					<dim>1</dim>
					<dim>1</dim>
				</port>
			</input>
			<output>
				<port id="2" names="Conv2D_15:0" precision="FP32">
					<dim>1</dim>
					<dim>64</dim>
					<dim>16</dim>
					<dim>16</dim>
				</port>
			</output>
		</layer>
		<layer id="114" name="model_1/model/batch_normalization_23/FusedBatchNormV3_model_1/model/conv2d_15/Conv2D1/y/EltwiseUnsqueeze9910_const" type="Const" version="opset1">
			<data element_type="f32" offset="680128" shape="1,64,1,1" size="256"/>
			<output>
				<port id="0" names="model_1/model/batch_normalization_23/FusedBatchNormV3_model_1/model/conv2d_15/Conv2D1/y:0" precision="FP32">
					<dim>1</dim>
					<dim>64</dim>
					<dim>1</dim>
					<dim>1</dim>
				</port>
			</output>
		</layer>
		<layer id="115" name="model_1/model/batch_normalization_23/FusedBatchNormV3_model_1/model/conv2d_15/Conv2D1" type="Add" version="opset1">
			<data auto_broadcast="numpy"/>
			<input>
				<port id="0">
					<dim>1</dim>
					<dim>64</dim>
					<dim>16</dim>
					<dim>16</dim>
				</port>
				<port id="1">
					<dim>1</dim>
					<dim>64</dim>
					<dim>1</dim>
					<dim>1</dim>
				</port>
			</input>
			<output>
				<port id="2" names="model_1/model/batch_normalization_23/FusedBatchNormV3_model_1/model/conv2d_15/Conv2D1:0" precision="FP32">
					<dim>1</dim>
					<dim>64</dim>
					<dim>16</dim>
					<dim>16</dim>
				</port>
			</output>
		</layer>
		<layer id="116" name="model_1/model/add_3/add" type="Add" version="opset1">
			<data auto_broadcast="numpy"/>
			<input>
				<port id="0">
					<dim>1</dim>
					<dim>64</dim>
					<dim>16</dim>
					<dim>16</dim>
				</port>
				<port id="1">
					<dim>1</dim>
					<dim>64</dim>
					<dim>16</dim>
					<dim>16</dim>
				</port>
			</input>
			<output>
				<port id="2" names="model_1/model/add_3/add:0" precision="FP32">
					<dim>1</dim>
					<dim>64</dim>
					<dim>16</dim>
					<dim>16</dim>
				</port>
			</output>
		</layer>
		<layer id="117" name="Conv2D_16/Transpose14113_const" type="Const" version="opset1">
			<data element_type="f32" offset="680384" shape="384,64,1,1" size="98304"/>
			<output>
				<port id="0" names="Conv2D_16/filter:0" precision="FP32">
					<dim>384</dim>
					<dim>64</dim>
					<dim>1</dim>
					<dim>1</dim>
				</port>
			</output>
		</layer>
		<layer id="118" name="Conv2D_16" type="Convolution" version="opset1">
			<data auto_pad="same_upper" dilations="1,1" pads_begin="0,0" pads_end="0,0" strides="1,1"/>
			<input>
				<port id="0">
					<dim>1</dim>
					<dim>64</dim>
					<dim>16</dim>
					<dim>16</dim>
				</port>
				<port id="1">
					<dim>384</dim>
					<dim>64</dim>
					<dim>1</dim>
					<dim>1</dim>
				</port>
			</input>
			<output>
				<port id="2" names="Conv2D_16:0" precision="FP32">
					<dim>1</dim>
					<dim>384</dim>
					<dim>16</dim>
					<dim>16</dim>
				</port>
			</output>
		</layer>
		<layer id="119" name="Add_16/y/EltwiseUnsqueeze9914_const" type="Const" version="opset1">
			<data element_type="f32" offset="778688" shape="1,384,1,1" size="1536"/>
			<output>
				<port id="0" names="Add_16/y:0" precision="FP32">
					<dim>1</dim>
					<dim>384</dim>
					<dim>1</dim>
					<dim>1</dim>
				</port>
			</output>
		</layer>
		<layer id="120" name="Add_16" type="Add" version="opset1">
			<data auto_broadcast="numpy"/>
			<input>
				<port id="0">
					<dim>1</dim>
					<dim>384</dim>
					<dim>16</dim>
					<dim>16</dim>
				</port>
				<port id="1">
					<dim>1</dim>
					<dim>384</dim>
					<dim>1</dim>
					<dim>1</dim>
				</port>
			</input>
			<output>
				<port id="2" names="Add_16:0" precision="FP32">
					<dim>1</dim>
					<dim>384</dim>
					<dim>16</dim>
					<dim>16</dim>
				</port>
			</output>
		</layer>
		<layer id="121" name="model_1/model/re_lu_16/Relu6_model_1/model/batch_normalization_24/FusedBatchNormV3_model_1/model/batch_normalization_25/FusedBatchNormV3_model_1/model/depthwise_conv2d_8/depthwise_model_1/model/conv2d_16/Conv2D" type="Clamp" version="opset1">
			<data max="6.0" min="0.0"/>
			<input>
				<port id="0">
					<dim>1</dim>
					<dim>384</dim>
					<dim>16</dim>
					<dim>16</dim>
				</port>
			</input>
			<output>
				<port id="1" names="model_1/model/re_lu_16/Relu6_model_1/model/batch_normalization_24/FusedBatchNormV3_model_1/model/batch_normalization_25/FusedBatchNormV3_model_1/model/depthwise_conv2d_8/depthwise_model_1/model/conv2d_16/Conv2D:0" precision="FP32">
					<dim>1</dim>
					<dim>384</dim>
					<dim>16</dim>
					<dim>16</dim>
				</port>
			</output>
		</layer>
		<layer id="122" name="2236422367_const" type="Const" version="opset1">
			<data element_type="f32" offset="780224" shape="384,1,1,5,5" size="38400"/>
			<output>
				<port id="0" names="depthwise_8/filter_in:0" precision="FP32">
					<dim>384</dim>
					<dim>1</dim>
					<dim>1</dim>
					<dim>5</dim>
					<dim>5</dim>
				</port>
			</output>
		</layer>
		<layer id="123" name="depthwise_8" type="GroupConvolution" version="opset1">
			<data auto_pad="same_upper" dilations="1,1" pads_begin="0,0" pads_end="0,0" strides="1,1"/>
			<input>
				<port id="0">
					<dim>1</dim>
					<dim>384</dim>
					<dim>16</dim>
					<dim>16</dim>
				</port>
				<port id="1">
					<dim>384</dim>
					<dim>1</dim>
					<dim>1</dim>
					<dim>5</dim>
					<dim>5</dim>
				</port>
			</input>
			<output>
				<port id="2" names="depthwise_8:0" precision="FP32">
					<dim>1</dim>
					<dim>384</dim>
					<dim>16</dim>
					<dim>16</dim>
				</port>
			</output>
		</layer>
		<layer id="124" name="Add_17/y/EltwiseUnsqueeze9918_const" type="Const" version="opset1">
			<data element_type="f32" offset="818624" shape="1,384,1,1" size="1536"/>
			<output>
				<port id="0" names="Add_17/y:0" precision="FP32">
					<dim>1</dim>
					<dim>384</dim>
					<dim>1</dim>
					<dim>1</dim>
				</port>
			</output>
		</layer>
		<layer id="125" name="Add_17" type="Add" version="opset1">
			<data auto_broadcast="numpy"/>
			<input>
				<port id="0">
					<dim>1</dim>
					<dim>384</dim>
					<dim>16</dim>
					<dim>16</dim>
				</port>
				<port id="1">
					<dim>1</dim>
					<dim>384</dim>
					<dim>1</dim>
					<dim>1</dim>
				</port>
			</input>
			<output>
				<port id="2" names="Add_17:0" precision="FP32">
					<dim>1</dim>
					<dim>384</dim>
					<dim>16</dim>
					<dim>16</dim>
				</port>
			</output>
		</layer>
		<layer id="126" name="model_1/model/re_lu_17/Relu6_model_1/model/batch_normalization_25/FusedBatchNormV3_model_1/model/depthwise_conv2d_8/depthwise" type="Clamp" version="opset1">
			<data max="6.0" min="0.0"/>
			<input>
				<port id="0">
					<dim>1</dim>
					<dim>384</dim>
					<dim>16</dim>
					<dim>16</dim>
				</port>
			</input>
			<output>
				<port id="1" names="model_1/model/re_lu_17/Relu6_model_1/model/batch_normalization_25/FusedBatchNormV3_model_1/model/depthwise_conv2d_8/depthwise:0" precision="FP32">
					<dim>1</dim>
					<dim>384</dim>
					<dim>16</dim>
					<dim>16</dim>
				</port>
			</output>
		</layer>
		<layer id="127" name="Conv2D_17/Transpose14121_const" type="Const" version="opset1">
			<data element_type="f32" offset="820160" shape="88,384,1,1" size="135168"/>
			<output>
				<port id="0" names="Conv2D_17/filter:0" precision="FP32">
					<dim>88</dim>
					<dim>384</dim>
					<dim>1</dim>
					<dim>1</dim>
				</port>
			</output>
		</layer>
		<layer id="128" name="Conv2D_17" type="Convolution" version="opset1">
			<data auto_pad="same_upper" dilations="1,1" pads_begin="0,0" pads_end="0,0" strides="1,1"/>
			<input>
				<port id="0">
					<dim>1</dim>
					<dim>384</dim>
					<dim>16</dim>
					<dim>16</dim>
				</port>
				<port id="1">
					<dim>88</dim>
					<dim>384</dim>
					<dim>1</dim>
					<dim>1</dim>
				</port>
			</input>
			<output>
				<port id="2" names="Conv2D_17:0" precision="FP32">
					<dim>1</dim>
					<dim>88</dim>
					<dim>16</dim>
					<dim>16</dim>
				</port>
			</output>
		</layer>
		<layer id="129" name="model_1/model/batch_normalization_26/FusedBatchNormV3_model_1/model/depthwise_conv2d_17/depthwise_model_1/model/conv2d_17/Conv2D1/y/EltwiseUnsqueeze9922_const" type="Const" version="opset1">
			<data element_type="f32" offset="955328" shape="1,88,1,1" size="352"/>
			<output>
				<port id="0" names="model_1/model/batch_normalization_26/FusedBatchNormV3_model_1/model/depthwise_conv2d_17/depthwise_model_1/model/conv2d_17/Conv2D1/y:0" precision="FP32">
					<dim>1</dim>
					<dim>88</dim>
					<dim>1</dim>
					<dim>1</dim>
				</port>
			</output>
		</layer>
		<layer id="130" name="model_1/model/batch_normalization_26/FusedBatchNormV3_model_1/model/depthwise_conv2d_17/depthwise_model_1/model/conv2d_17/Conv2D1" type="Add" version="opset1">
			<data auto_broadcast="numpy"/>
			<input>
				<port id="0">
					<dim>1</dim>
					<dim>88</dim>
					<dim>16</dim>
					<dim>16</dim>
				</port>
				<port id="1">
					<dim>1</dim>
					<dim>88</dim>
					<dim>1</dim>
					<dim>1</dim>
				</port>
			</input>
			<output>
				<port id="2" names="model_1/model/batch_normalization_26/FusedBatchNormV3_model_1/model/depthwise_conv2d_17/depthwise_model_1/model/conv2d_17/Conv2D1:0" precision="FP32">
					<dim>1</dim>
					<dim>88</dim>
					<dim>16</dim>
					<dim>16</dim>
				</port>
			</output>
		</layer>
		<layer id="131" name="Conv2D_18/Transpose14125_const" type="Const" version="opset1">
			<data element_type="f32" offset="955680" shape="528,88,1,1" size="185856"/>
			<output>
				<port id="0" names="Conv2D_18/filter:0" precision="FP32">
					<dim>528</dim>
					<dim>88</dim>
					<dim>1</dim>
					<dim>1</dim>
				</port>
			</output>
		</layer>
		<layer id="132" name="Conv2D_18" type="Convolution" version="opset1">
			<data auto_pad="same_upper" dilations="1,1" pads_begin="0,0" pads_end="0,0" strides="1,1"/>
			<input>
				<port id="0">
					<dim>1</dim>
					<dim>88</dim>
					<dim>16</dim>
					<dim>16</dim>
				</port>
				<port id="1">
					<dim>528</dim>
					<dim>88</dim>
					<dim>1</dim>
					<dim>1</dim>
				</port>
			</input>
			<output>
				<port id="2" names="Conv2D_18:0" precision="FP32">
					<dim>1</dim>
					<dim>528</dim>
					<dim>16</dim>
					<dim>16</dim>
				</port>
			</output>
		</layer>
		<layer id="133" name="Add_18/y/EltwiseUnsqueeze9926_const" type="Const" version="opset1">
			<data element_type="f32" offset="1141536" shape="1,528,1,1" size="2112"/>
			<output>
				<port id="0" names="Add_18/y:0" precision="FP32">
					<dim>1</dim>
					<dim>528</dim>
					<dim>1</dim>
					<dim>1</dim>
				</port>
			</output>
		</layer>
		<layer id="134" name="Add_18" type="Add" version="opset1">
			<data auto_broadcast="numpy"/>
			<input>
				<port id="0">
					<dim>1</dim>
					<dim>528</dim>
					<dim>16</dim>
					<dim>16</dim>
				</port>
				<port id="1">
					<dim>1</dim>
					<dim>528</dim>
					<dim>1</dim>
					<dim>1</dim>
				</port>
			</input>
			<output>
				<port id="2" names="Add_18:0" precision="FP32">
					<dim>1</dim>
					<dim>528</dim>
					<dim>16</dim>
					<dim>16</dim>
				</port>
			</output>
		</layer>
		<layer id="135" name="model_1/model/re_lu_18/Relu6_model_1/model/batch_normalization_27/FusedBatchNormV3_model_1/model/batch_normalization_31/FusedBatchNormV3_model_1/model/depthwise_conv2d_10/depthwise_model_1/model/depthwise_conv2d_11/depthwise_model_1/model/conv2d_18/Conv2D" type="Clamp" version="opset1">
			<data max="6.0" min="0.0"/>
			<input>
				<port id="0">
					<dim>1</dim>
					<dim>528</dim>
					<dim>16</dim>
					<dim>16</dim>
				</port>
			</input>
			<output>
				<port id="1" names="model_1/model/re_lu_18/Relu6_model_1/model/batch_normalization_27/FusedBatchNormV3_model_1/model/batch_normalization_31/FusedBatchNormV3_model_1/model/depthwise_conv2d_10/depthwise_model_1/model/depthwise_conv2d_11/depthwise_model_1/model/conv2d_18/Conv2D:0" precision="FP32">
					<dim>1</dim>
					<dim>528</dim>
					<dim>16</dim>
					<dim>16</dim>
				</port>
			</output>
		</layer>
		<layer id="136" name="2238822391_const" type="Const" version="opset1">
			<data element_type="f32" offset="1143648" shape="528,1,1,5,5" size="52800"/>
			<output>
				<port id="0" names="depthwise_9/filter_in:0" precision="FP32">
					<dim>528</dim>
					<dim>1</dim>
					<dim>1</dim>
					<dim>5</dim>
					<dim>5</dim>
				</port>
			</output>
		</layer>
		<layer id="137" name="depthwise_9" type="GroupConvolution" version="opset1">
			<data auto_pad="same_upper" dilations="1,1" pads_begin="0,0" pads_end="0,0" strides="1,1"/>
			<input>
				<port id="0">
					<dim>1</dim>
					<dim>528</dim>
					<dim>16</dim>
					<dim>16</dim>
				</port>
				<port id="1">
					<dim>528</dim>
					<dim>1</dim>
					<dim>1</dim>
					<dim>5</dim>
					<dim>5</dim>
				</port>
			</input>
			<output>
				<port id="2" names="depthwise_9:0" precision="FP32">
					<dim>1</dim>
					<dim>528</dim>
					<dim>16</dim>
					<dim>16</dim>
				</port>
			</output>
		</layer>
		<layer id="138" name="Add_19/y/EltwiseUnsqueeze9930_const" type="Const" version="opset1">
			<data element_type="f32" offset="1196448" shape="1,528,1,1" size="2112"/>
			<output>
				<port id="0" names="Add_19/y:0" precision="FP32">
					<dim>1</dim>
					<dim>528</dim>
					<dim>1</dim>
					<dim>1</dim>
				</port>
			</output>
		</layer>
		<layer id="139" name="Add_19" type="Add" version="opset1">
			<data auto_broadcast="numpy"/>
			<input>
				<port id="0">
					<dim>1</dim>
					<dim>528</dim>
					<dim>16</dim>
					<dim>16</dim>
				</port>
				<port id="1">
					<dim>1</dim>
					<dim>528</dim>
					<dim>1</dim>
					<dim>1</dim>
				</port>
			</input>
			<output>
				<port id="2" names="Add_19:0" precision="FP32">
					<dim>1</dim>
					<dim>528</dim>
					<dim>16</dim>
					<dim>16</dim>
				</port>
			</output>
		</layer>
		<layer id="140" name="model_1/model/re_lu_19/Relu6_model_1/model/batch_normalization_28/FusedBatchNormV3_model_1/model/depthwise_conv2d_9/depthwise_model_1/model/depthwise_conv2d_11/depthwise" type="Clamp" version="opset1">
			<data max="6.0" min="0.0"/>
			<input>
				<port id="0">
					<dim>1</dim>
					<dim>528</dim>
					<dim>16</dim>
					<dim>16</dim>
				</port>
			</input>
			<output>
				<port id="1" names="model_1/model/re_lu_19/Relu6_model_1/model/batch_normalization_28/FusedBatchNormV3_model_1/model/depthwise_conv2d_9/depthwise_model_1/model/depthwise_conv2d_11/depthwise:0" precision="FP32">
					<dim>1</dim>
					<dim>528</dim>
					<dim>16</dim>
					<dim>16</dim>
				</port>
			</output>
		</layer>
		<layer id="141" name="Conv2D_19/Transpose14133_const" type="Const" version="opset1">
			<data element_type="f32" offset="1198560" shape="88,528,1,1" size="185856"/>
			<output>
				<port id="0" names="Conv2D_19/filter:0" precision="FP32">
					<dim>88</dim>
					<dim>528</dim>
					<dim>1</dim>
					<dim>1</dim>
				</port>
			</output>
		</layer>
		<layer id="142" name="Conv2D_19" type="Convolution" version="opset1">
			<data auto_pad="same_upper" dilations="1,1" pads_begin="0,0" pads_end="0,0" strides="1,1"/>
			<input>
				<port id="0">
					<dim>1</dim>
					<dim>528</dim>
					<dim>16</dim>
					<dim>16</dim>
				</port>
				<port id="1">
					<dim>88</dim>
					<dim>528</dim>
					<dim>1</dim>
					<dim>1</dim>
				</port>
			</input>
			<output>
				<port id="2" names="Conv2D_19:0" precision="FP32">
					<dim>1</dim>
					<dim>88</dim>
					<dim>16</dim>
					<dim>16</dim>
				</port>
			</output>
		</layer>
		<layer id="143" name="model_1/model/batch_normalization_29/FusedBatchNormV3_model_1/model/depthwise_conv2d_17/depthwise_model_1/model/conv2d_19/Conv2D1/y/EltwiseUnsqueeze9934_const" type="Const" version="opset1">
			<data element_type="f32" offset="1384416" shape="1,88,1,1" size="352"/>
			<output>
				<port id="0" names="model_1/model/batch_normalization_29/FusedBatchNormV3_model_1/model/depthwise_conv2d_17/depthwise_model_1/model/conv2d_19/Conv2D1/y:0" precision="FP32">
					<dim>1</dim>
					<dim>88</dim>
					<dim>1</dim>
					<dim>1</dim>
				</port>
			</output>
		</layer>
		<layer id="144" name="model_1/model/batch_normalization_29/FusedBatchNormV3_model_1/model/depthwise_conv2d_17/depthwise_model_1/model/conv2d_19/Conv2D1" type="Add" version="opset1">
			<data auto_broadcast="numpy"/>
			<input>
				<port id="0">
					<dim>1</dim>
					<dim>88</dim>
					<dim>16</dim>
					<dim>16</dim>
				</port>
				<port id="1">
					<dim>1</dim>
					<dim>88</dim>
					<dim>1</dim>
					<dim>1</dim>
				</port>
			</input>
			<output>
				<port id="2" names="model_1/model/batch_normalization_29/FusedBatchNormV3_model_1/model/depthwise_conv2d_17/depthwise_model_1/model/conv2d_19/Conv2D1:0" precision="FP32">
					<dim>1</dim>
					<dim>88</dim>
					<dim>16</dim>
					<dim>16</dim>
				</port>
			</output>
		</layer>
		<layer id="145" name="model_1/model/add_4/add" type="Add" version="opset1">
			<data auto_broadcast="numpy"/>
			<input>
				<port id="0">
					<dim>1</dim>
					<dim>88</dim>
					<dim>16</dim>
					<dim>16</dim>
				</port>
				<port id="1">
					<dim>1</dim>
					<dim>88</dim>
					<dim>16</dim>
					<dim>16</dim>
				</port>
			</input>
			<output>
				<port id="2" names="model_1/model/add_4/add:0" precision="FP32">
					<dim>1</dim>
					<dim>88</dim>
					<dim>16</dim>
					<dim>16</dim>
				</port>
			</output>
		</layer>
		<layer id="146" name="Conv2D_20/Transpose14137_const" type="Const" version="opset1">
			<data element_type="f32" offset="1384768" shape="528,88,1,1" size="185856"/>
			<output>
				<port id="0" names="Conv2D_20/filter:0" precision="FP32">
					<dim>528</dim>
					<dim>88</dim>
					<dim>1</dim>
					<dim>1</dim>
				</port>
			</output>
		</layer>
		<layer id="147" name="Conv2D_20" type="Convolution" version="opset1">
			<data auto_pad="same_upper" dilations="1,1" pads_begin="0,0" pads_end="0,0" strides="1,1"/>
			<input>
				<port id="0">
					<dim>1</dim>
					<dim>88</dim>
					<dim>16</dim>
					<dim>16</dim>
				</port>
				<port id="1">
					<dim>528</dim>
					<dim>88</dim>
					<dim>1</dim>
					<dim>1</dim>
				</port>
			</input>
			<output>
				<port id="2" names="Conv2D_20:0" precision="FP32">
					<dim>1</dim>
					<dim>528</dim>
					<dim>16</dim>
					<dim>16</dim>
				</port>
			</output>
		</layer>
		<layer id="148" name="Add_20/y/EltwiseUnsqueeze9938_const" type="Const" version="opset1">
			<data element_type="f32" offset="1570624" shape="1,528,1,1" size="2112"/>
			<output>
				<port id="0" names="Add_20/y:0" precision="FP32">
					<dim>1</dim>
					<dim>528</dim>
					<dim>1</dim>
					<dim>1</dim>
				</port>
			</output>
		</layer>
		<layer id="149" name="Add_20" type="Add" version="opset1">
			<data auto_broadcast="numpy"/>
			<input>
				<port id="0">
					<dim>1</dim>
					<dim>528</dim>
					<dim>16</dim>
					<dim>16</dim>
				</port>
				<port id="1">
					<dim>1</dim>
					<dim>528</dim>
					<dim>1</dim>
					<dim>1</dim>
				</port>
			</input>
			<output>
				<port id="2" names="Add_20:0" precision="FP32">
					<dim>1</dim>
					<dim>528</dim>
					<dim>16</dim>
					<dim>16</dim>
				</port>
			</output>
		</layer>
		<layer id="150" name="model_1/model/re_lu_20/Relu6_model_1/model/batch_normalization_30/FusedBatchNormV3_model_1/model/batch_normalization_31/FusedBatchNormV3_model_1/model/depthwise_conv2d_10/depthwise_model_1/model/depthwise_conv2d_11/depthwise_model_1/model/conv2d_20/Conv2D" type="Clamp" version="opset1">
			<data max="6.0" min="0.0"/>
			<input>
				<port id="0">
					<dim>1</dim>
					<dim>528</dim>
					<dim>16</dim>
					<dim>16</dim>
				</port>
			</input>
			<output>
				<port id="1" names="model_1/model/re_lu_20/Relu6_model_1/model/batch_normalization_30/FusedBatchNormV3_model_1/model/batch_normalization_31/FusedBatchNormV3_model_1/model/depthwise_conv2d_10/depthwise_model_1/model/depthwise_conv2d_11/depthwise_model_1/model/conv2d_20/Conv2D:0" precision="FP32">
					<dim>1</dim>
					<dim>528</dim>
					<dim>16</dim>
					<dim>16</dim>
				</port>
			</output>
		</layer>
		<layer id="151" name="2246022463_const" type="Const" version="opset1">
			<data element_type="f32" offset="1572736" shape="528,1,1,5,5" size="52800"/>
			<output>
				<port id="0" names="depthwise_10/filter_in:0" precision="FP32">
					<dim>528</dim>
					<dim>1</dim>
					<dim>1</dim>
					<dim>5</dim>
					<dim>5</dim>
				</port>
			</output>
		</layer>
		<layer id="152" name="depthwise_10" type="GroupConvolution" version="opset1">
			<data auto_pad="same_upper" dilations="1,1" pads_begin="0,0" pads_end="0,0" strides="1,1"/>
			<input>
				<port id="0">
					<dim>1</dim>
					<dim>528</dim>
					<dim>16</dim>
					<dim>16</dim>
				</port>
				<port id="1">
					<dim>528</dim>
					<dim>1</dim>
					<dim>1</dim>
					<dim>5</dim>
					<dim>5</dim>
				</port>
			</input>
			<output>
				<port id="2" names="depthwise_10:0" precision="FP32">
					<dim>1</dim>
					<dim>528</dim>
					<dim>16</dim>
					<dim>16</dim>
				</port>
			</output>
		</layer>
		<layer id="153" name="Add_21/y/EltwiseUnsqueeze9942_const" type="Const" version="opset1">
			<data element_type="f32" offset="1625536" shape="1,528,1,1" size="2112"/>
			<output>
				<port id="0" names="Add_21/y:0" precision="FP32">
					<dim>1</dim>
					<dim>528</dim>
					<dim>1</dim>
					<dim>1</dim>
				</port>
			</output>
		</layer>
		<layer id="154" name="Add_21" type="Add" version="opset1">
			<data auto_broadcast="numpy"/>
			<input>
				<port id="0">
					<dim>1</dim>
					<dim>528</dim>
					<dim>16</dim>
					<dim>16</dim>
				</port>
				<port id="1">
					<dim>1</dim>
					<dim>528</dim>
					<dim>1</dim>
					<dim>1</dim>
				</port>
			</input>
			<output>
				<port id="2" names="Add_21:0" precision="FP32">
					<dim>1</dim>
					<dim>528</dim>
					<dim>16</dim>
					<dim>16</dim>
				</port>
			</output>
		</layer>
		<layer id="155" name="model_1/model/re_lu_21/Relu6_model_1/model/batch_normalization_31/FusedBatchNormV3_model_1/model/depthwise_conv2d_10/depthwise_model_1/model/depthwise_conv2d_11/depthwise" type="Clamp" version="opset1">
			<data max="6.0" min="0.0"/>
			<input>
				<port id="0">
					<dim>1</dim>
					<dim>528</dim>
					<dim>16</dim>
					<dim>16</dim>
				</port>
			</input>
			<output>
				<port id="1" names="model_1/model/re_lu_21/Relu6_model_1/model/batch_normalization_31/FusedBatchNormV3_model_1/model/depthwise_conv2d_10/depthwise_model_1/model/depthwise_conv2d_11/depthwise:0" precision="FP32">
					<dim>1</dim>
					<dim>528</dim>
					<dim>16</dim>
					<dim>16</dim>
				</port>
			</output>
		</layer>
		<layer id="156" name="Conv2D_21/Transpose14145_const" type="Const" version="opset1">
			<data element_type="f32" offset="1627648" shape="88,528,1,1" size="185856"/>
			<output>
				<port id="0" names="Conv2D_21/filter:0" precision="FP32">
					<dim>88</dim>
					<dim>528</dim>
					<dim>1</dim>
					<dim>1</dim>
				</port>
			</output>
		</layer>
		<layer id="157" name="Conv2D_21" type="Convolution" version="opset1">
			<data auto_pad="same_upper" dilations="1,1" pads_begin="0,0" pads_end="0,0" strides="1,1"/>
			<input>
				<port id="0">
					<dim>1</dim>
					<dim>528</dim>
					<dim>16</dim>
					<dim>16</dim>
				</port>
				<port id="1">
					<dim>88</dim>
					<dim>528</dim>
					<dim>1</dim>
					<dim>1</dim>
				</port>
			</input>
			<output>
				<port id="2" names="Conv2D_21:0" precision="FP32">
					<dim>1</dim>
					<dim>88</dim>
					<dim>16</dim>
					<dim>16</dim>
				</port>
			</output>
		</layer>
		<layer id="158" name="model_1/model/batch_normalization_32/FusedBatchNormV3_model_1/model/depthwise_conv2d_17/depthwise_model_1/model/conv2d_21/Conv2D1/y/EltwiseUnsqueeze9946_const" type="Const" version="opset1">
			<data element_type="f32" offset="1813504" shape="1,88,1,1" size="352"/>
			<output>
				<port id="0" names="model_1/model/batch_normalization_32/FusedBatchNormV3_model_1/model/depthwise_conv2d_17/depthwise_model_1/model/conv2d_21/Conv2D1/y:0" precision="FP32">
					<dim>1</dim>
					<dim>88</dim>
					<dim>1</dim>
					<dim>1</dim>
				</port>
			</output>
		</layer>
		<layer id="159" name="model_1/model/batch_normalization_32/FusedBatchNormV3_model_1/model/depthwise_conv2d_17/depthwise_model_1/model/conv2d_21/Conv2D1" type="Add" version="opset1">
			<data auto_broadcast="numpy"/>
			<input>
				<port id="0">
					<dim>1</dim>
					<dim>88</dim>
					<dim>16</dim>
					<dim>16</dim>
				</port>
				<port id="1">
					<dim>1</dim>
					<dim>88</dim>
					<dim>1</dim>
					<dim>1</dim>
				</port>
			</input>
			<output>
				<port id="2" names="model_1/model/batch_normalization_32/FusedBatchNormV3_model_1/model/depthwise_conv2d_17/depthwise_model_1/model/conv2d_21/Conv2D1:0" precision="FP32">
					<dim>1</dim>
					<dim>88</dim>
					<dim>16</dim>
					<dim>16</dim>
				</port>
			</output>
		</layer>
		<layer id="160" name="model_1/model/add_5/add" type="Add" version="opset1">
			<data auto_broadcast="numpy"/>
			<input>
				<port id="0">
					<dim>1</dim>
					<dim>88</dim>
					<dim>16</dim>
					<dim>16</dim>
				</port>
				<port id="1">
					<dim>1</dim>
					<dim>88</dim>
					<dim>16</dim>
					<dim>16</dim>
				</port>
			</input>
			<output>
				<port id="2" names="model_1/model/add_5/add:0" precision="FP32">
					<dim>1</dim>
					<dim>88</dim>
					<dim>16</dim>
					<dim>16</dim>
				</port>
			</output>
		</layer>
		<layer id="161" name="Conv2D_22/Transpose14149_const" type="Const" version="opset1">
			<data element_type="f32" offset="1813856" shape="528,88,1,1" size="185856"/>
			<output>
				<port id="0" names="Conv2D_22/filter:0" precision="FP32">
					<dim>528</dim>
					<dim>88</dim>
					<dim>1</dim>
					<dim>1</dim>
				</port>
			</output>
		</layer>
		<layer id="162" name="Conv2D_22" type="Convolution" version="opset1">
			<data auto_pad="same_upper" dilations="1,1" pads_begin="0,0" pads_end="0,0" strides="1,1"/>
			<input>
				<port id="0">
					<dim>1</dim>
					<dim>88</dim>
					<dim>16</dim>
					<dim>16</dim>
				</port>
				<port id="1">
					<dim>528</dim>
					<dim>88</dim>
					<dim>1</dim>
					<dim>1</dim>
				</port>
			</input>
			<output>
				<port id="2" names="Conv2D_22:0" precision="FP32">
					<dim>1</dim>
					<dim>528</dim>
					<dim>16</dim>
					<dim>16</dim>
				</port>
			</output>
		</layer>
		<layer id="163" name="Add_22/y/EltwiseUnsqueeze9950_const" type="Const" version="opset1">
			<data element_type="f32" offset="1999712" shape="1,528,1,1" size="2112"/>
			<output>
				<port id="0" names="Add_22/y:0" precision="FP32">
					<dim>1</dim>
					<dim>528</dim>
					<dim>1</dim>
					<dim>1</dim>
				</port>
			</output>
		</layer>
		<layer id="164" name="Add_22" type="Add" version="opset1">
			<data auto_broadcast="numpy"/>
			<input>
				<port id="0">
					<dim>1</dim>
					<dim>528</dim>
					<dim>16</dim>
					<dim>16</dim>
				</port>
				<port id="1">
					<dim>1</dim>
					<dim>528</dim>
					<dim>1</dim>
					<dim>1</dim>
				</port>
			</input>
			<output>
				<port id="2" names="Add_22:0" precision="FP32">
					<dim>1</dim>
					<dim>528</dim>
					<dim>16</dim>
					<dim>16</dim>
				</port>
			</output>
		</layer>
		<layer id="165" name="model_1/model/re_lu_22/Relu6_model_1/model/batch_normalization_33/FusedBatchNormV3_model_1/model/batch_normalization_31/FusedBatchNormV3_model_1/model/depthwise_conv2d_10/depthwise_model_1/model/depthwise_conv2d_11/depthwise_model_1/model/conv2d_22/Conv2D" type="Clamp" version="opset1">
			<data max="6.0" min="0.0"/>
			<input>
				<port id="0">
					<dim>1</dim>
					<dim>528</dim>
					<dim>16</dim>
					<dim>16</dim>
				</port>
			</input>
			<output>
				<port id="1" names="model_1/model/re_lu_22/Relu6_model_1/model/batch_normalization_33/FusedBatchNormV3_model_1/model/batch_normalization_31/FusedBatchNormV3_model_1/model/depthwise_conv2d_10/depthwise_model_1/model/depthwise_conv2d_11/depthwise_model_1/model/conv2d_22/Conv2D:0" precision="FP32">
					<dim>1</dim>
					<dim>528</dim>
					<dim>16</dim>
					<dim>16</dim>
				</port>
			</output>
		</layer>
		<layer id="166" name="2236022363_const" type="Const" version="opset1">
			<data element_type="f32" offset="2001824" shape="528,1,1,5,5" size="52800"/>
			<output>
				<port id="0" names="depthwise_11/filter_in:0" precision="FP32">
					<dim>528</dim>
					<dim>1</dim>
					<dim>1</dim>
					<dim>5</dim>
					<dim>5</dim>
				</port>
			</output>
		</layer>
		<layer id="167" name="depthwise_11" type="GroupConvolution" version="opset1">
			<data auto_pad="explicit" dilations="1,1" pads_begin="2,2" pads_end="2,2" strides="2,2"/>
			<input>
				<port id="0">
					<dim>1</dim>
					<dim>528</dim>
					<dim>16</dim>
					<dim>16</dim>
				</port>
				<port id="1">
					<dim>528</dim>
					<dim>1</dim>
					<dim>1</dim>
					<dim>5</dim>
					<dim>5</dim>
				</port>
			</input>
			<output>
				<port id="2" names="depthwise_11:0" precision="FP32">
					<dim>1</dim>
					<dim>528</dim>
					<dim>8</dim>
					<dim>8</dim>
				</port>
			</output>
		</layer>
		<layer id="168" name="Add_23/y/EltwiseUnsqueeze9954_const" type="Const" version="opset1">
			<data element_type="f32" offset="2054624" shape="1,528,1,1" size="2112"/>
			<output>
				<port id="0" names="Add_23/y:0" precision="FP32">
					<dim>1</dim>
					<dim>528</dim>
					<dim>1</dim>
					<dim>1</dim>
				</port>
			</output>
		</layer>
		<layer id="169" name="Add_23" type="Add" version="opset1">
			<data auto_broadcast="numpy"/>
			<input>
				<port id="0">
					<dim>1</dim>
					<dim>528</dim>
					<dim>8</dim>
					<dim>8</dim>
				</port>
				<port id="1">
					<dim>1</dim>
					<dim>528</dim>
					<dim>1</dim>
					<dim>1</dim>
				</port>
			</input>
			<output>
				<port id="2" names="Add_23:0" precision="FP32">
					<dim>1</dim>
					<dim>528</dim>
					<dim>8</dim>
					<dim>8</dim>
				</port>
			</output>
		</layer>
		<layer id="170" name="model_1/model/re_lu_23/Relu6_model_1/model/batch_normalization_34/FusedBatchNormV3_model_1/model/depthwise_conv2d_11/depthwise" type="Clamp" version="opset1">
			<data max="6.0" min="0.0"/>
			<input>
				<port id="0">
					<dim>1</dim>
					<dim>528</dim>
					<dim>8</dim>
					<dim>8</dim>
				</port>
			</input>
			<output>
				<port id="1" names="model_1/model/re_lu_23/Relu6_model_1/model/batch_normalization_34/FusedBatchNormV3_model_1/model/depthwise_conv2d_11/depthwise:0" precision="FP32">
					<dim>1</dim>
					<dim>528</dim>
					<dim>8</dim>
					<dim>8</dim>
				</port>
			</output>
		</layer>
		<layer id="171" name="Conv2D_23/Transpose14157_const" type="Const" version="opset1">
			<data element_type="f32" offset="2056736" shape="144,528,1,1" size="304128"/>
			<output>
				<port id="0" names="Conv2D_23/filter:0" precision="FP32">
					<dim>144</dim>
					<dim>528</dim>
					<dim>1</dim>
					<dim>1</dim>
				</port>
			</output>
		</layer>
		<layer id="172" name="Conv2D_23" type="Convolution" version="opset1">
			<data auto_pad="same_upper" dilations="1,1" pads_begin="0,0" pads_end="0,0" strides="1,1"/>
			<input>
				<port id="0">
					<dim>1</dim>
					<dim>528</dim>
					<dim>8</dim>
					<dim>8</dim>
				</port>
				<port id="1">
					<dim>144</dim>
					<dim>528</dim>
					<dim>1</dim>
					<dim>1</dim>
				</port>
			</input>
			<output>
				<port id="2" names="Conv2D_23:0" precision="FP32">
					<dim>1</dim>
					<dim>144</dim>
					<dim>8</dim>
					<dim>8</dim>
				</port>
			</output>
		</layer>
		<layer id="173" name="model_1/model/batch_normalization_35/FusedBatchNormV3_model_1/model/conv2d_29/Conv2D_model_1/model/conv2d_23/Conv2D1/y/EltwiseUnsqueeze9958_const" type="Const" version="opset1">
			<data element_type="f32" offset="2360864" shape="1,144,1,1" size="576"/>
			<output>
				<port id="0" names="model_1/model/batch_normalization_35/FusedBatchNormV3_model_1/model/conv2d_29/Conv2D_model_1/model/conv2d_23/Conv2D1/y:0" precision="FP32">
					<dim>1</dim>
					<dim>144</dim>
					<dim>1</dim>
					<dim>1</dim>
				</port>
			</output>
		</layer>
		<layer id="174" name="model_1/model/batch_normalization_35/FusedBatchNormV3_model_1/model/conv2d_29/Conv2D_model_1/model/conv2d_23/Conv2D1" type="Add" version="opset1">
			<data auto_broadcast="numpy"/>
			<input>
				<port id="0">
					<dim>1</dim>
					<dim>144</dim>
					<dim>8</dim>
					<dim>8</dim>
				</port>
				<port id="1">
					<dim>1</dim>
					<dim>144</dim>
					<dim>1</dim>
					<dim>1</dim>
				</port>
			</input>
			<output>
				<port id="2" names="model_1/model/batch_normalization_35/FusedBatchNormV3_model_1/model/conv2d_29/Conv2D_model_1/model/conv2d_23/Conv2D1:0" precision="FP32">
					<dim>1</dim>
					<dim>144</dim>
					<dim>8</dim>
					<dim>8</dim>
				</port>
			</output>
		</layer>
		<layer id="175" name="Conv2D_24/Transpose14161_const" type="Const" version="opset1">
			<data element_type="f32" offset="2361440" shape="864,144,1,1" size="497664"/>
			<output>
				<port id="0" names="Conv2D_24/filter:0" precision="FP32">
					<dim>864</dim>
					<dim>144</dim>
					<dim>1</dim>
					<dim>1</dim>
				</port>
			</output>
		</layer>
		<layer id="176" name="Conv2D_24" type="Convolution" version="opset1">
			<data auto_pad="same_upper" dilations="1,1" pads_begin="0,0" pads_end="0,0" strides="1,1"/>
			<input>
				<port id="0">
					<dim>1</dim>
					<dim>144</dim>
					<dim>8</dim>
					<dim>8</dim>
				</port>
				<port id="1">
					<dim>864</dim>
					<dim>144</dim>
					<dim>1</dim>
					<dim>1</dim>
				</port>
			</input>
			<output>
				<port id="2" names="Conv2D_24:0" precision="FP32">
					<dim>1</dim>
					<dim>864</dim>
					<dim>8</dim>
					<dim>8</dim>
				</port>
			</output>
		</layer>
		<layer id="177" name="Add_24/y/EltwiseUnsqueeze9962_const" type="Const" version="opset1">
			<data element_type="f32" offset="2859104" shape="1,864,1,1" size="3456"/>
			<output>
				<port id="0" names="Add_24/y:0" precision="FP32">
					<dim>1</dim>
					<dim>864</dim>
					<dim>1</dim>
					<dim>1</dim>
				</port>
			</output>
		</layer>
		<layer id="178" name="Add_24" type="Add" version="opset1">
			<data auto_broadcast="numpy"/>
			<input>
				<port id="0">
					<dim>1</dim>
					<dim>864</dim>
					<dim>8</dim>
					<dim>8</dim>
				</port>
				<port id="1">
					<dim>1</dim>
					<dim>864</dim>
					<dim>1</dim>
					<dim>1</dim>
				</port>
			</input>
			<output>
				<port id="2" names="Add_24:0" precision="FP32">
					<dim>1</dim>
					<dim>864</dim>
					<dim>8</dim>
					<dim>8</dim>
				</port>
			</output>
		</layer>
		<layer id="179" name="model_1/model/re_lu_24/Relu6_model_1/model/batch_normalization_36/FusedBatchNormV3_model_1/model/batch_normalization_40/FusedBatchNormV3_model_1/model/depthwise_conv2d_13/depthwise_model_1/model/depthwise_conv2d_20/depthwise_model_1/model/conv2d_24/Conv2D" type="Clamp" version="opset1">
			<data max="6.0" min="0.0"/>
			<input>
				<port id="0">
					<dim>1</dim>
					<dim>864</dim>
					<dim>8</dim>
					<dim>8</dim>
				</port>
			</input>
			<output>
				<port id="1" names="model_1/model/re_lu_24/Relu6_model_1/model/batch_normalization_36/FusedBatchNormV3_model_1/model/batch_normalization_40/FusedBatchNormV3_model_1/model/depthwise_conv2d_13/depthwise_model_1/model/depthwise_conv2d_20/depthwise_model_1/model/conv2d_24/Conv2D:0" precision="FP32">
					<dim>1</dim>
					<dim>864</dim>
					<dim>8</dim>
					<dim>8</dim>
				</port>
			</output>
		</layer>
		<layer id="180" name="2241622419_const" type="Const" version="opset1">
			<data element_type="f32" offset="2862560" shape="864,1,1,5,5" size="86400"/>
			<output>
				<port id="0" names="depthwise_12/filter_in:0" precision="FP32">
					<dim>864</dim>
					<dim>1</dim>
					<dim>1</dim>
					<dim>5</dim>
					<dim>5</dim>
				</port>
			</output>
		</layer>
		<layer id="181" name="depthwise_12" type="GroupConvolution" version="opset1">
			<data auto_pad="same_upper" dilations="1,1" pads_begin="0,0" pads_end="0,0" strides="1,1"/>
			<input>
				<port id="0">
					<dim>1</dim>
					<dim>864</dim>
					<dim>8</dim>
					<dim>8</dim>
				</port>
				<port id="1">
					<dim>864</dim>
					<dim>1</dim>
					<dim>1</dim>
					<dim>5</dim>
					<dim>5</dim>
				</port>
			</input>
			<output>
				<port id="2" names="depthwise_12:0" precision="FP32">
					<dim>1</dim>
					<dim>864</dim>
					<dim>8</dim>
					<dim>8</dim>
				</port>
			</output>
		</layer>
		<layer id="182" name="Add_25/y/EltwiseUnsqueeze9966_const" type="Const" version="opset1">
			<data element_type="f32" offset="2948960" shape="1,864,1,1" size="3456"/>
			<output>
				<port id="0" names="Add_25/y:0" precision="FP32">
					<dim>1</dim>
					<dim>864</dim>
					<dim>1</dim>
					<dim>1</dim>
				</port>
			</output>
		</layer>
		<layer id="183" name="Add_25" type="Add" version="opset1">
			<data auto_broadcast="numpy"/>
			<input>
				<port id="0">
					<dim>1</dim>
					<dim>864</dim>
					<dim>8</dim>
					<dim>8</dim>
				</port>
				<port id="1">
					<dim>1</dim>
					<dim>864</dim>
					<dim>1</dim>
					<dim>1</dim>
				</port>
			</input>
			<output>
				<port id="2" names="Add_25:0" precision="FP32">
					<dim>1</dim>
					<dim>864</dim>
					<dim>8</dim>
					<dim>8</dim>
				</port>
			</output>
		</layer>
		<layer id="184" name="model_1/model/re_lu_25/Relu6_model_1/model/batch_normalization_37/FusedBatchNormV3_model_1/model/depthwise_conv2d_12/depthwise_model_1/model/depthwise_conv2d_20/depthwise" type="Clamp" version="opset1">
			<data max="6.0" min="0.0"/>
			<input>
				<port id="0">
					<dim>1</dim>
					<dim>864</dim>
					<dim>8</dim>
					<dim>8</dim>
				</port>
			</input>
			<output>
				<port id="1" names="model_1/model/re_lu_25/Relu6_model_1/model/batch_normalization_37/FusedBatchNormV3_model_1/model/depthwise_conv2d_12/depthwise_model_1/model/depthwise_conv2d_20/depthwise:0" precision="FP32">
					<dim>1</dim>
					<dim>864</dim>
					<dim>8</dim>
					<dim>8</dim>
				</port>
			</output>
		</layer>
		<layer id="185" name="Conv2D_25/Transpose14169_const" type="Const" version="opset1">
			<data element_type="f32" offset="2952416" shape="144,864,1,1" size="497664"/>
			<output>
				<port id="0" names="Conv2D_25/filter:0" precision="FP32">
					<dim>144</dim>
					<dim>864</dim>
					<dim>1</dim>
					<dim>1</dim>
				</port>
			</output>
		</layer>
		<layer id="186" name="Conv2D_25" type="Convolution" version="opset1">
			<data auto_pad="same_upper" dilations="1,1" pads_begin="0,0" pads_end="0,0" strides="1,1"/>
			<input>
				<port id="0">
					<dim>1</dim>
					<dim>864</dim>
					<dim>8</dim>
					<dim>8</dim>
				</port>
				<port id="1">
					<dim>144</dim>
					<dim>864</dim>
					<dim>1</dim>
					<dim>1</dim>
				</port>
			</input>
			<output>
				<port id="2" names="Conv2D_25:0" precision="FP32">
					<dim>1</dim>
					<dim>144</dim>
					<dim>8</dim>
					<dim>8</dim>
				</port>
			</output>
		</layer>
		<layer id="187" name="model_1/model/batch_normalization_38/FusedBatchNormV3_model_1/model/conv2d_29/Conv2D_model_1/model/conv2d_25/Conv2D1/y/EltwiseUnsqueeze9970_const" type="Const" version="opset1">
			<data element_type="f32" offset="3450080" shape="1,144,1,1" size="576"/>
			<output>
				<port id="0" names="model_1/model/batch_normalization_38/FusedBatchNormV3_model_1/model/conv2d_29/Conv2D_model_1/model/conv2d_25/Conv2D1/y:0" precision="FP32">
					<dim>1</dim>
					<dim>144</dim>
					<dim>1</dim>
					<dim>1</dim>
				</port>
			</output>
		</layer>
		<layer id="188" name="model_1/model/batch_normalization_38/FusedBatchNormV3_model_1/model/conv2d_29/Conv2D_model_1/model/conv2d_25/Conv2D1" type="Add" version="opset1">
			<data auto_broadcast="numpy"/>
			<input>
				<port id="0">
					<dim>1</dim>
					<dim>144</dim>
					<dim>8</dim>
					<dim>8</dim>
				</port>
				<port id="1">
					<dim>1</dim>
					<dim>144</dim>
					<dim>1</dim>
					<dim>1</dim>
				</port>
			</input>
			<output>
				<port id="2" names="model_1/model/batch_normalization_38/FusedBatchNormV3_model_1/model/conv2d_29/Conv2D_model_1/model/conv2d_25/Conv2D1:0" precision="FP32">
					<dim>1</dim>
					<dim>144</dim>
					<dim>8</dim>
					<dim>8</dim>
				</port>
			</output>
		</layer>
		<layer id="189" name="model_1/model/add_6/add" type="Add" version="opset1">
			<data auto_broadcast="numpy"/>
			<input>
				<port id="0">
					<dim>1</dim>
					<dim>144</dim>
					<dim>8</dim>
					<dim>8</dim>
				</port>
				<port id="1">
					<dim>1</dim>
					<dim>144</dim>
					<dim>8</dim>
					<dim>8</dim>
				</port>
			</input>
			<output>
				<port id="2" names="model_1/model/add_6/add:0" precision="FP32">
					<dim>1</dim>
					<dim>144</dim>
					<dim>8</dim>
					<dim>8</dim>
				</port>
			</output>
		</layer>
		<layer id="190" name="Conv2D_26/Transpose14173_const" type="Const" version="opset1">
			<data element_type="f32" offset="3450656" shape="864,144,1,1" size="497664"/>
			<output>
				<port id="0" names="Conv2D_26/filter:0" precision="FP32">
					<dim>864</dim>
					<dim>144</dim>
					<dim>1</dim>
					<dim>1</dim>
				</port>
			</output>
		</layer>
		<layer id="191" name="Conv2D_26" type="Convolution" version="opset1">
			<data auto_pad="same_upper" dilations="1,1" pads_begin="0,0" pads_end="0,0" strides="1,1"/>
			<input>
				<port id="0">
					<dim>1</dim>
					<dim>144</dim>
					<dim>8</dim>
					<dim>8</dim>
				</port>
				<port id="1">
					<dim>864</dim>
					<dim>144</dim>
					<dim>1</dim>
					<dim>1</dim>
				</port>
			</input>
			<output>
				<port id="2" names="Conv2D_26:0" precision="FP32">
					<dim>1</dim>
					<dim>864</dim>
					<dim>8</dim>
					<dim>8</dim>
				</port>
			</output>
		</layer>
		<layer id="192" name="Add_26/y/EltwiseUnsqueeze9974_const" type="Const" version="opset1">
			<data element_type="f32" offset="3948320" shape="1,864,1,1" size="3456"/>
			<output>
				<port id="0" names="Add_26/y:0" precision="FP32">
					<dim>1</dim>
					<dim>864</dim>
					<dim>1</dim>
					<dim>1</dim>
				</port>
			</output>
		</layer>
		<layer id="193" name="Add_26" type="Add" version="opset1">
			<data auto_broadcast="numpy"/>
			<input>
				<port id="0">
					<dim>1</dim>
					<dim>864</dim>
					<dim>8</dim>
					<dim>8</dim>
				</port>
				<port id="1">
					<dim>1</dim>
					<dim>864</dim>
					<dim>1</dim>
					<dim>1</dim>
				</port>
			</input>
			<output>
				<port id="2" names="Add_26:0" precision="FP32">
					<dim>1</dim>
					<dim>864</dim>
					<dim>8</dim>
					<dim>8</dim>
				</port>
			</output>
		</layer>
		<layer id="194" name="model_1/model/re_lu_26/Relu6_model_1/model/batch_normalization_39/FusedBatchNormV3_model_1/model/batch_normalization_40/FusedBatchNormV3_model_1/model/depthwise_conv2d_13/depthwise_model_1/model/depthwise_conv2d_20/depthwise_model_1/model/conv2d_26/Conv2D" type="Clamp" version="opset1">
			<data max="6.0" min="0.0"/>
			<input>
				<port id="0">
					<dim>1</dim>
					<dim>864</dim>
					<dim>8</dim>
					<dim>8</dim>
				</port>
			</input>
			<output>
				<port id="1" names="model_1/model/re_lu_26/Relu6_model_1/model/batch_normalization_39/FusedBatchNormV3_model_1/model/batch_normalization_40/FusedBatchNormV3_model_1/model/depthwise_conv2d_13/depthwise_model_1/model/depthwise_conv2d_20/depthwise_model_1/model/conv2d_26/Conv2D:0" precision="FP32">
					<dim>1</dim>
					<dim>864</dim>
					<dim>8</dim>
					<dim>8</dim>
				</port>
			</output>
		</layer>
		<layer id="195" name="2246422467_const" type="Const" version="opset1">
			<data element_type="f32" offset="3951776" shape="864,1,1,5,5" size="86400"/>
			<output>
				<port id="0" names="depthwise_13/filter_in:0" precision="FP32">
					<dim>864</dim>
					<dim>1</dim>
					<dim>1</dim>
					<dim>5</dim>
					<dim>5</dim>
				</port>
			</output>
		</layer>
		<layer id="196" name="depthwise_13" type="GroupConvolution" version="opset1">
			<data auto_pad="same_upper" dilations="1,1" pads_begin="0,0" pads_end="0,0" strides="1,1"/>
			<input>
				<port id="0">
					<dim>1</dim>
					<dim>864</dim>
					<dim>8</dim>
					<dim>8</dim>
				</port>
				<port id="1">
					<dim>864</dim>
					<dim>1</dim>
					<dim>1</dim>
					<dim>5</dim>
					<dim>5</dim>
				</port>
			</input>
			<output>
				<port id="2" names="depthwise_13:0" precision="FP32">
					<dim>1</dim>
					<dim>864</dim>
					<dim>8</dim>
					<dim>8</dim>
				</port>
			</output>
		</layer>
		<layer id="197" name="Add_27/y/EltwiseUnsqueeze9978_const" type="Const" version="opset1">
			<data element_type="f32" offset="4038176" shape="1,864,1,1" size="3456"/>
			<output>
				<port id="0" names="Add_27/y:0" precision="FP32">
					<dim>1</dim>
					<dim>864</dim>
					<dim>1</dim>
					<dim>1</dim>
				</port>
			</output>
		</layer>
		<layer id="198" name="Add_27" type="Add" version="opset1">
			<data auto_broadcast="numpy"/>
			<input>
				<port id="0">
					<dim>1</dim>
					<dim>864</dim>
					<dim>8</dim>
					<dim>8</dim>
				</port>
				<port id="1">
					<dim>1</dim>
					<dim>864</dim>
					<dim>1</dim>
					<dim>1</dim>
				</port>
			</input>
			<output>
				<port id="2" names="Add_27:0" precision="FP32">
					<dim>1</dim>
					<dim>864</dim>
					<dim>8</dim>
					<dim>8</dim>
				</port>
			</output>
		</layer>
		<layer id="199" name="model_1/model/re_lu_27/Relu6_model_1/model/batch_normalization_40/FusedBatchNormV3_model_1/model/depthwise_conv2d_13/depthwise_model_1/model/depthwise_conv2d_20/depthwise" type="Clamp" version="opset1">
			<data max="6.0" min="0.0"/>
			<input>
				<port id="0">
					<dim>1</dim>
					<dim>864</dim>
					<dim>8</dim>
					<dim>8</dim>
				</port>
			</input>
			<output>
				<port id="1" names="model_1/model/re_lu_27/Relu6_model_1/model/batch_normalization_40/FusedBatchNormV3_model_1/model/depthwise_conv2d_13/depthwise_model_1/model/depthwise_conv2d_20/depthwise:0" precision="FP32">
					<dim>1</dim>
					<dim>864</dim>
					<dim>8</dim>
					<dim>8</dim>
				</port>
			</output>
		</layer>
		<layer id="200" name="Conv2D_27/Transpose14181_const" type="Const" version="opset1">
			<data element_type="f32" offset="4041632" shape="144,864,1,1" size="497664"/>
			<output>
				<port id="0" names="Conv2D_27/filter:0" precision="FP32">
					<dim>144</dim>
					<dim>864</dim>
					<dim>1</dim>
					<dim>1</dim>
				</port>
			</output>
		</layer>
		<layer id="201" name="Conv2D_27" type="Convolution" version="opset1">
			<data auto_pad="same_upper" dilations="1,1" pads_begin="0,0" pads_end="0,0" strides="1,1"/>
			<input>
				<port id="0">
					<dim>1</dim>
					<dim>864</dim>
					<dim>8</dim>
					<dim>8</dim>
				</port>
				<port id="1">
					<dim>144</dim>
					<dim>864</dim>
					<dim>1</dim>
					<dim>1</dim>
				</port>
			</input>
			<output>
				<port id="2" names="Conv2D_27:0" precision="FP32">
					<dim>1</dim>
					<dim>144</dim>
					<dim>8</dim>
					<dim>8</dim>
				</port>
			</output>
		</layer>
		<layer id="202" name="model_1/model/batch_normalization_41/FusedBatchNormV3_model_1/model/conv2d_29/Conv2D_model_1/model/conv2d_27/Conv2D1/y/EltwiseUnsqueeze9982_const" type="Const" version="opset1">
			<data element_type="f32" offset="4539296" shape="1,144,1,1" size="576"/>
			<output>
				<port id="0" names="model_1/model/batch_normalization_41/FusedBatchNormV3_model_1/model/conv2d_29/Conv2D_model_1/model/conv2d_27/Conv2D1/y:0" precision="FP32">
					<dim>1</dim>
					<dim>144</dim>
					<dim>1</dim>
					<dim>1</dim>
				</port>
			</output>
		</layer>
		<layer id="203" name="model_1/model/batch_normalization_41/FusedBatchNormV3_model_1/model/conv2d_29/Conv2D_model_1/model/conv2d_27/Conv2D1" type="Add" version="opset1">
			<data auto_broadcast="numpy"/>
			<input>
				<port id="0">
					<dim>1</dim>
					<dim>144</dim>
					<dim>8</dim>
					<dim>8</dim>
				</port>
				<port id="1">
					<dim>1</dim>
					<dim>144</dim>
					<dim>1</dim>
					<dim>1</dim>
				</port>
			</input>
			<output>
				<port id="2" names="model_1/model/batch_normalization_41/FusedBatchNormV3_model_1/model/conv2d_29/Conv2D_model_1/model/conv2d_27/Conv2D1:0" precision="FP32">
					<dim>1</dim>
					<dim>144</dim>
					<dim>8</dim>
					<dim>8</dim>
				</port>
			</output>
		</layer>
		<layer id="204" name="model_1/model/add_7/add" type="Add" version="opset1">
			<data auto_broadcast="numpy"/>
			<input>
				<port id="0">
					<dim>1</dim>
					<dim>144</dim>
					<dim>8</dim>
					<dim>8</dim>
				</port>
				<port id="1">
					<dim>1</dim>
					<dim>144</dim>
					<dim>8</dim>
					<dim>8</dim>
				</port>
			</input>
			<output>
				<port id="2" names="model_1/model/add_7/add:0" precision="FP32">
					<dim>1</dim>
					<dim>144</dim>
					<dim>8</dim>
					<dim>8</dim>
				</port>
			</output>
		</layer>
		<layer id="205" name="Conv2D_28/Transpose14185_const" type="Const" version="opset1">
			<data element_type="f32" offset="4539872" shape="864,144,1,1" size="497664"/>
			<output>
				<port id="0" names="Conv2D_28/filter:0" precision="FP32">
					<dim>864</dim>
					<dim>144</dim>
					<dim>1</dim>
					<dim>1</dim>
				</port>
			</output>
		</layer>
		<layer id="206" name="Conv2D_28" type="Convolution" version="opset1">
			<data auto_pad="same_upper" dilations="1,1" pads_begin="0,0" pads_end="0,0" strides="1,1"/>
			<input>
				<port id="0">
					<dim>1</dim>
					<dim>144</dim>
					<dim>8</dim>
					<dim>8</dim>
				</port>
				<port id="1">
					<dim>864</dim>
					<dim>144</dim>
					<dim>1</dim>
					<dim>1</dim>
				</port>
			</input>
			<output>
				<port id="2" names="Conv2D_28:0" precision="FP32">
					<dim>1</dim>
					<dim>864</dim>
					<dim>8</dim>
					<dim>8</dim>
				</port>
			</output>
		</layer>
		<layer id="207" name="Add_28/y/EltwiseUnsqueeze9986_const" type="Const" version="opset1">
			<data element_type="f32" offset="5037536" shape="1,864,1,1" size="3456"/>
			<output>
				<port id="0" names="Add_28/y:0" precision="FP32">
					<dim>1</dim>
					<dim>864</dim>
					<dim>1</dim>
					<dim>1</dim>
				</port>
			</output>
		</layer>
		<layer id="208" name="Add_28" type="Add" version="opset1">
			<data auto_broadcast="numpy"/>
			<input>
				<port id="0">
					<dim>1</dim>
					<dim>864</dim>
					<dim>8</dim>
					<dim>8</dim>
				</port>
				<port id="1">
					<dim>1</dim>
					<dim>864</dim>
					<dim>1</dim>
					<dim>1</dim>
				</port>
			</input>
			<output>
				<port id="2" names="Add_28:0" precision="FP32">
					<dim>1</dim>
					<dim>864</dim>
					<dim>8</dim>
					<dim>8</dim>
				</port>
			</output>
		</layer>
		<layer id="209" name="model_1/model/re_lu_28/Relu6_model_1/model/batch_normalization_42/FusedBatchNormV3_model_1/model/batch_normalization_40/FusedBatchNormV3_model_1/model/depthwise_conv2d_13/depthwise_model_1/model/depthwise_conv2d_20/depthwise_model_1/model/conv2d_28/Conv2D" type="Clamp" version="opset1">
			<data max="6.0" min="0.0"/>
			<input>
				<port id="0">
					<dim>1</dim>
					<dim>864</dim>
					<dim>8</dim>
					<dim>8</dim>
				</port>
			</input>
			<output>
				<port id="1" names="model_1/model/re_lu_28/Relu6_model_1/model/batch_normalization_42/FusedBatchNormV3_model_1/model/batch_normalization_40/FusedBatchNormV3_model_1/model/depthwise_conv2d_13/depthwise_model_1/model/depthwise_conv2d_20/depthwise_model_1/model/conv2d_28/Conv2D:0" precision="FP32">
					<dim>1</dim>
					<dim>864</dim>
					<dim>8</dim>
					<dim>8</dim>
				</port>
			</output>
		</layer>
		<layer id="210" name="2240422407_const" type="Const" version="opset1">
			<data element_type="f32" offset="5040992" shape="864,1,1,5,5" size="86400"/>
			<output>
				<port id="0" names="depthwise_14/filter_in:0" precision="FP32">
					<dim>864</dim>
					<dim>1</dim>
					<dim>1</dim>
					<dim>5</dim>
					<dim>5</dim>
				</port>
			</output>
		</layer>
		<layer id="211" name="depthwise_14" type="GroupConvolution" version="opset1">
			<data auto_pad="same_upper" dilations="1,1" pads_begin="0,0" pads_end="0,0" strides="1,1"/>
			<input>
				<port id="0">
					<dim>1</dim>
					<dim>864</dim>
					<dim>8</dim>
					<dim>8</dim>
				</port>
				<port id="1">
					<dim>864</dim>
					<dim>1</dim>
					<dim>1</dim>
					<dim>5</dim>
					<dim>5</dim>
				</port>
			</input>
			<output>
				<port id="2" names="depthwise_14:0" precision="FP32">
					<dim>1</dim>
					<dim>864</dim>
					<dim>8</dim>
					<dim>8</dim>
				</port>
			</output>
		</layer>
		<layer id="212" name="Add_29/y/EltwiseUnsqueeze9990_const" type="Const" version="opset1">
			<data element_type="f32" offset="5127392" shape="1,864,1,1" size="3456"/>
			<output>
				<port id="0" names="Add_29/y:0" precision="FP32">
					<dim>1</dim>
					<dim>864</dim>
					<dim>1</dim>
					<dim>1</dim>
				</port>
			</output>
		</layer>
		<layer id="213" name="Add_29" type="Add" version="opset1">
			<data auto_broadcast="numpy"/>
			<input>
				<port id="0">
					<dim>1</dim>
					<dim>864</dim>
					<dim>8</dim>
					<dim>8</dim>
				</port>
				<port id="1">
					<dim>1</dim>
					<dim>864</dim>
					<dim>1</dim>
					<dim>1</dim>
				</port>
			</input>
			<output>
				<port id="2" names="Add_29:0" precision="FP32">
					<dim>1</dim>
					<dim>864</dim>
					<dim>8</dim>
					<dim>8</dim>
				</port>
			</output>
		</layer>
		<layer id="214" name="model_1/model/re_lu_29/Relu6_model_1/model/batch_normalization_43/FusedBatchNormV3_model_1/model/depthwise_conv2d_14/depthwise_model_1/model/depthwise_conv2d_20/depthwise" type="Clamp" version="opset1">
			<data max="6.0" min="0.0"/>
			<input>
				<port id="0">
					<dim>1</dim>
					<dim>864</dim>
					<dim>8</dim>
					<dim>8</dim>
				</port>
			</input>
			<output>
				<port id="1" names="model_1/model/re_lu_29/Relu6_model_1/model/batch_normalization_43/FusedBatchNormV3_model_1/model/depthwise_conv2d_14/depthwise_model_1/model/depthwise_conv2d_20/depthwise:0" precision="FP32">
					<dim>1</dim>
					<dim>864</dim>
					<dim>8</dim>
					<dim>8</dim>
				</port>
			</output>
		</layer>
		<layer id="215" name="Conv2D_29/Transpose14193_const" type="Const" version="opset1">
			<data element_type="f32" offset="5130848" shape="144,864,1,1" size="497664"/>
			<output>
				<port id="0" names="Conv2D_29/filter:0" precision="FP32">
					<dim>144</dim>
					<dim>864</dim>
					<dim>1</dim>
					<dim>1</dim>
				</port>
			</output>
		</layer>
		<layer id="216" name="Conv2D_29" type="Convolution" version="opset1">
			<data auto_pad="same_upper" dilations="1,1" pads_begin="0,0" pads_end="0,0" strides="1,1"/>
			<input>
				<port id="0">
					<dim>1</dim>
					<dim>864</dim>
					<dim>8</dim>
					<dim>8</dim>
				</port>
				<port id="1">
					<dim>144</dim>
					<dim>864</dim>
					<dim>1</dim>
					<dim>1</dim>
				</port>
			</input>
			<output>
				<port id="2" names="Conv2D_29:0" precision="FP32">
					<dim>1</dim>
					<dim>144</dim>
					<dim>8</dim>
					<dim>8</dim>
				</port>
			</output>
		</layer>
		<layer id="217" name="model_1/model/batch_normalization_44/FusedBatchNormV3_model_1/model/conv2d_29/Conv2D1/y/EltwiseUnsqueeze9994_const" type="Const" version="opset1">
			<data element_type="f32" offset="5628512" shape="1,144,1,1" size="576"/>
			<output>
				<port id="0" names="model_1/model/batch_normalization_44/FusedBatchNormV3_model_1/model/conv2d_29/Conv2D1/y:0" precision="FP32">
					<dim>1</dim>
					<dim>144</dim>
					<dim>1</dim>
					<dim>1</dim>
				</port>
			</output>
		</layer>
		<layer id="218" name="model_1/model/batch_normalization_44/FusedBatchNormV3_model_1/model/conv2d_29/Conv2D1" type="Add" version="opset1">
			<data auto_broadcast="numpy"/>
			<input>
				<port id="0">
					<dim>1</dim>
					<dim>144</dim>
					<dim>8</dim>
					<dim>8</dim>
				</port>
				<port id="1">
					<dim>1</dim>
					<dim>144</dim>
					<dim>1</dim>
					<dim>1</dim>
				</port>
			</input>
			<output>
				<port id="2" names="model_1/model/batch_normalization_44/FusedBatchNormV3_model_1/model/conv2d_29/Conv2D1:0" precision="FP32">
					<dim>1</dim>
					<dim>144</dim>
					<dim>8</dim>
					<dim>8</dim>
				</port>
			</output>
		</layer>
		<layer id="219" name="model_1/model/add_8/add" type="Add" version="opset1">
			<data auto_broadcast="numpy"/>
			<input>
				<port id="0">
					<dim>1</dim>
					<dim>144</dim>
					<dim>8</dim>
					<dim>8</dim>
				</port>
				<port id="1">
					<dim>1</dim>
					<dim>144</dim>
					<dim>8</dim>
					<dim>8</dim>
				</port>
			</input>
			<output>
				<port id="2" names="model_1/model/add_8/add:0" precision="FP32">
					<dim>1</dim>
					<dim>144</dim>
					<dim>8</dim>
					<dim>8</dim>
				</port>
			</output>
		</layer>
		<layer id="220" name="Conv2D_30/Transpose14197_const" type="Const" version="opset1">
			<data element_type="f32" offset="5629088" shape="864,144,1,1" size="497664"/>
			<output>
				<port id="0" names="Conv2D_30/filter:0" precision="FP32">
					<dim>864</dim>
					<dim>144</dim>
					<dim>1</dim>
					<dim>1</dim>
				</port>
			</output>
		</layer>
		<layer id="221" name="Conv2D_30" type="Convolution" version="opset1">
			<data auto_pad="same_upper" dilations="1,1" pads_begin="0,0" pads_end="0,0" strides="1,1"/>
			<input>
				<port id="0">
					<dim>1</dim>
					<dim>144</dim>
					<dim>8</dim>
					<dim>8</dim>
				</port>
				<port id="1">
					<dim>864</dim>
					<dim>144</dim>
					<dim>1</dim>
					<dim>1</dim>
				</port>
			</input>
			<output>
				<port id="2" names="Conv2D_30:0" precision="FP32">
					<dim>1</dim>
					<dim>864</dim>
					<dim>8</dim>
					<dim>8</dim>
				</port>
			</output>
		</layer>
		<layer id="222" name="Add_30/y/EltwiseUnsqueeze9998_const" type="Const" version="opset1">
			<data element_type="f32" offset="6126752" shape="1,864,1,1" size="3456"/>
			<output>
				<port id="0" names="Add_30/y:0" precision="FP32">
					<dim>1</dim>
					<dim>864</dim>
					<dim>1</dim>
					<dim>1</dim>
				</port>
			</output>
		</layer>
		<layer id="223" name="Add_30" type="Add" version="opset1">
			<data auto_broadcast="numpy"/>
			<input>
				<port id="0">
					<dim>1</dim>
					<dim>864</dim>
					<dim>8</dim>
					<dim>8</dim>
				</port>
				<port id="1">
					<dim>1</dim>
					<dim>864</dim>
					<dim>1</dim>
					<dim>1</dim>
				</port>
			</input>
			<output>
				<port id="2" names="Add_30:0" precision="FP32">
					<dim>1</dim>
					<dim>864</dim>
					<dim>8</dim>
					<dim>8</dim>
				</port>
			</output>
		</layer>
		<layer id="224" name="model_1/model/re_lu_30/Relu6_model_1/model/batch_normalization_45/FusedBatchNormV3_model_1/model/batch_normalization_40/FusedBatchNormV3_model_1/model/depthwise_conv2d_13/depthwise_model_1/model/depthwise_conv2d_20/depthwise_model_1/model/conv2d_30/Conv2D" type="Clamp" version="opset1">
			<data max="6.0" min="0.0"/>
			<input>
				<port id="0">
					<dim>1</dim>
					<dim>864</dim>
					<dim>8</dim>
					<dim>8</dim>
				</port>
			</input>
			<output>
				<port id="1" names="model_1/model/re_lu_30/Relu6_model_1/model/batch_normalization_45/FusedBatchNormV3_model_1/model/batch_normalization_40/FusedBatchNormV3_model_1/model/depthwise_conv2d_13/depthwise_model_1/model/depthwise_conv2d_20/depthwise_model_1/model/conv2d_30/Conv2D:0" precision="FP32">
					<dim>1</dim>
					<dim>864</dim>
					<dim>8</dim>
					<dim>8</dim>
				</port>
			</output>
		</layer>
		<layer id="225" name="2244022443_const" type="Const" version="opset1">
			<data element_type="f32" offset="6130208" shape="864,1,1,3,3" size="31104"/>
			<output>
				<port id="0" names="depthwise_15/filter_in:0" precision="FP32">
					<dim>864</dim>
					<dim>1</dim>
					<dim>1</dim>
					<dim>3</dim>
					<dim>3</dim>
				</port>
			</output>
		</layer>
		<layer id="226" name="depthwise_15" type="GroupConvolution" version="opset1">
			<data auto_pad="same_upper" dilations="1,1" pads_begin="0,0" pads_end="0,0" strides="1,1"/>
			<input>
				<port id="0">
					<dim>1</dim>
					<dim>864</dim>
					<dim>8</dim>
					<dim>8</dim>
				</port>
				<port id="1">
					<dim>864</dim>
					<dim>1</dim>
					<dim>1</dim>
					<dim>3</dim>
					<dim>3</dim>
				</port>
			</input>
			<output>
				<port id="2" names="depthwise_15:0" precision="FP32">
					<dim>1</dim>
					<dim>864</dim>
					<dim>8</dim>
					<dim>8</dim>
				</port>
			</output>
		</layer>
		<layer id="227" name="Add_31/y/EltwiseUnsqueeze10002_const" type="Const" version="opset1">
			<data element_type="f32" offset="6161312" shape="1,864,1,1" size="3456"/>
			<output>
				<port id="0" names="Add_31/y:0" precision="FP32">
					<dim>1</dim>
					<dim>864</dim>
					<dim>1</dim>
					<dim>1</dim>
				</port>
			</output>
		</layer>
		<layer id="228" name="Add_31" type="Add" version="opset1">
			<data auto_broadcast="numpy"/>
			<input>
				<port id="0">
					<dim>1</dim>
					<dim>864</dim>
					<dim>8</dim>
					<dim>8</dim>
				</port>
				<port id="1">
					<dim>1</dim>
					<dim>864</dim>
					<dim>1</dim>
					<dim>1</dim>
				</port>
			</input>
			<output>
				<port id="2" names="Add_31:0" precision="FP32">
					<dim>1</dim>
					<dim>864</dim>
					<dim>8</dim>
					<dim>8</dim>
				</port>
			</output>
		</layer>
		<layer id="229" name="model_1/model/re_lu_31/Relu6_model_1/model/batch_normalization_46/FusedBatchNormV3_model_1/model/depthwise_conv2d_15/depthwise_model_1/model/depthwise_conv2d_20/depthwise" type="Clamp" version="opset1">
			<data max="6.0" min="0.0"/>
			<input>
				<port id="0">
					<dim>1</dim>
					<dim>864</dim>
					<dim>8</dim>
					<dim>8</dim>
				</port>
			</input>
			<output>
				<port id="1" names="model_1/model/re_lu_31/Relu6_model_1/model/batch_normalization_46/FusedBatchNormV3_model_1/model/depthwise_conv2d_15/depthwise_model_1/model/depthwise_conv2d_20/depthwise:0" precision="FP32">
					<dim>1</dim>
					<dim>864</dim>
					<dim>8</dim>
					<dim>8</dim>
				</port>
			</output>
		</layer>
		<layer id="230" name="2237222375_const" type="Const" version="opset1">
			<data element_type="f32" offset="6164768" shape="864,1,1,3,3" size="31104"/>
			<output>
				<port id="0" names="depthwise_17/filter_in:0" precision="FP32">
					<dim>864</dim>
					<dim>1</dim>
					<dim>1</dim>
					<dim>3</dim>
					<dim>3</dim>
				</port>
			</output>
		</layer>
		<layer id="231" name="depthwise_17" type="GroupConvolution" version="opset1">
			<data auto_pad="same_upper" dilations="1,1" pads_begin="0,0" pads_end="0,0" strides="1,1"/>
			<input>
				<port id="0">
					<dim>1</dim>
					<dim>864</dim>
					<dim>8</dim>
					<dim>8</dim>
				</port>
				<port id="1">
					<dim>864</dim>
					<dim>1</dim>
					<dim>1</dim>
					<dim>3</dim>
					<dim>3</dim>
				</port>
			</input>
			<output>
				<port id="2" names="depthwise_17:0" precision="FP32">
					<dim>1</dim>
					<dim>864</dim>
					<dim>8</dim>
					<dim>8</dim>
				</port>
			</output>
		</layer>
		<layer id="232" name="model_1/model/depthwise_conv2d_20/depthwise1/y/EltwiseUnsqueeze10006_const" type="Const" version="opset1">
			<data element_type="f32" offset="6195872" shape="1,864,1,1" size="3456"/>
			<output>
				<port id="0" names="model_1/model/depthwise_conv2d_20/depthwise1/y:0" precision="FP32">
					<dim>1</dim>
					<dim>864</dim>
					<dim>1</dim>
					<dim>1</dim>
				</port>
			</output>
		</layer>
		<layer id="233" name="model_1/model/depthwise_conv2d_20/depthwise1" type="Add" version="opset1">
			<data auto_broadcast="numpy"/>
			<input>
				<port id="0">
					<dim>1</dim>
					<dim>864</dim>
					<dim>8</dim>
					<dim>8</dim>
				</port>
				<port id="1">
					<dim>1</dim>
					<dim>864</dim>
					<dim>1</dim>
					<dim>1</dim>
				</port>
			</input>
			<output>
				<port id="2" names="model_1/model/depthwise_conv2d_20/depthwise1:0" precision="FP32">
					<dim>1</dim>
					<dim>864</dim>
					<dim>8</dim>
					<dim>8</dim>
				</port>
			</output>
		</layer>
		<layer id="234" name="Conv2D_32/Transpose14209_const" type="Const" version="opset1">
			<data element_type="f32" offset="6199328" shape="288,864,1,1" size="995328"/>
			<output>
				<port id="0" names="Conv2D_32/filter:0" precision="FP32">
					<dim>288</dim>
					<dim>864</dim>
					<dim>1</dim>
					<dim>1</dim>
				</port>
			</output>
		</layer>
		<layer id="235" name="Conv2D_32" type="Convolution" version="opset1">
			<data auto_pad="valid" dilations="1,1" pads_begin="0,0" pads_end="0,0" strides="1,1"/>
			<input>
				<port id="0">
					<dim>1</dim>
					<dim>864</dim>
					<dim>8</dim>
					<dim>8</dim>
				</port>
				<port id="1">
					<dim>288</dim>
					<dim>864</dim>
					<dim>1</dim>
					<dim>1</dim>
				</port>
			</input>
			<output>
				<port id="2" names="Conv2D_32:0" precision="FP32">
					<dim>1</dim>
					<dim>288</dim>
					<dim>8</dim>
					<dim>8</dim>
				</port>
			</output>
		</layer>
		<layer id="236" name="Add_33/y/EltwiseUnsqueeze10010_const" type="Const" version="opset1">
			<data element_type="f32" offset="7194656" shape="1,288,1,1" size="1152"/>
			<output>
				<port id="0" names="Add_33/y:0" precision="FP32">
					<dim>1</dim>
					<dim>288</dim>
					<dim>1</dim>
					<dim>1</dim>
				</port>
			</output>
		</layer>
		<layer id="237" name="Add_33" type="Add" version="opset1">
			<data auto_broadcast="numpy"/>
			<input>
				<port id="0">
					<dim>1</dim>
					<dim>288</dim>
					<dim>8</dim>
					<dim>8</dim>
				</port>
				<port id="1">
					<dim>1</dim>
					<dim>288</dim>
					<dim>1</dim>
					<dim>1</dim>
				</port>
			</input>
			<output>
				<port id="2" names="Add_33:0" precision="FP32">
					<dim>1</dim>
					<dim>288</dim>
					<dim>8</dim>
					<dim>8</dim>
				</port>
			</output>
		</layer>
		<layer id="238" name="model_1/model/activation_4/Relu_model_1/model/batch_normalization_51/FusedBatchNormV3_model_1/model/conv2d_46/Conv2D_model_1/model/conv2d_35/Conv2D" type="ReLU" version="opset1">
			<input>
				<port id="0">
					<dim>1</dim>
					<dim>288</dim>
					<dim>8</dim>
					<dim>8</dim>
				</port>
			</input>
			<output>
				<port id="1" names="model_1/model/activation_4/Relu_model_1/model/batch_normalization_51/FusedBatchNormV3_model_1/model/conv2d_46/Conv2D_model_1/model/conv2d_35/Conv2D:0" precision="FP32">
					<dim>1</dim>
					<dim>288</dim>
					<dim>8</dim>
					<dim>8</dim>
				</port>
			</output>
		</layer>
		<layer id="239" name="model_1/model/max_pooling2d/MaxPool" type="MaxPool" version="opset1">
			<data auto_pad="valid" kernel="2,2" pads_begin="0,0" pads_end="0,0" strides="2,2"/>
			<input>
				<port id="0">
					<dim>1</dim>
					<dim>288</dim>
					<dim>8</dim>
					<dim>8</dim>
				</port>
			</input>
			<output>
				<port id="1" names="model_1/model/max_pooling2d/MaxPool:0" precision="FP32">
					<dim>1</dim>
					<dim>288</dim>
					<dim>4</dim>
					<dim>4</dim>
				</port>
			</output>
		</layer>
		<layer id="240" name="2239222395_const" type="Const" version="opset1">
			<data element_type="f32" offset="7195808" shape="288,1,1,3,3" size="10368"/>
			<output>
				<port id="0" names="depthwise_18/filter_in:0" precision="FP32">
					<dim>288</dim>
					<dim>1</dim>
					<dim>1</dim>
					<dim>3</dim>
					<dim>3</dim>
				</port>
			</output>
		</layer>
		<layer id="241" name="depthwise_18" type="GroupConvolution" version="opset1">
			<data auto_pad="same_upper" dilations="1,1" pads_begin="0,0" pads_end="0,0" strides="2,2"/>
			<input>
				<port id="0">
					<dim>1</dim>
					<dim>288</dim>
					<dim>8</dim>
					<dim>8</dim>
				</port>
				<port id="1">
					<dim>288</dim>
					<dim>1</dim>
					<dim>1</dim>
					<dim>3</dim>
					<dim>3</dim>
				</port>
			</input>
			<output>
				<port id="2" names="depthwise_18:0" precision="FP32">
					<dim>1</dim>
					<dim>288</dim>
					<dim>4</dim>
					<dim>4</dim>
				</port>
			</output>
		</layer>
		<layer id="242" name="model_1/model/depthwise_conv2d_21/depthwise1/y/EltwiseUnsqueeze10014_const" type="Const" version="opset1">
			<data element_type="f32" offset="7206176" shape="1,288,1,1" size="1152"/>
			<output>
				<port id="0" names="model_1/model/depthwise_conv2d_21/depthwise1/y:0" precision="FP32">
					<dim>1</dim>
					<dim>288</dim>
					<dim>1</dim>
					<dim>1</dim>
				</port>
			</output>
		</layer>
		<layer id="243" name="model_1/model/depthwise_conv2d_21/depthwise1" type="Add" version="opset1">
			<data auto_broadcast="numpy"/>
			<input>
				<port id="0">
					<dim>1</dim>
					<dim>288</dim>
					<dim>4</dim>
					<dim>4</dim>
				</port>
				<port id="1">
					<dim>1</dim>
					<dim>288</dim>
					<dim>1</dim>
					<dim>1</dim>
				</port>
			</input>
			<output>
				<port id="2" names="model_1/model/depthwise_conv2d_21/depthwise1:0" precision="FP32">
					<dim>1</dim>
					<dim>288</dim>
					<dim>4</dim>
					<dim>4</dim>
				</port>
			</output>
		</layer>
		<layer id="244" name="Conv2D_33/Transpose14217_const" type="Const" version="opset1">
			<data element_type="f32" offset="7207328" shape="288,288,1,1" size="331776"/>
			<output>
				<port id="0" names="Conv2D_33/filter:0" precision="FP32">
					<dim>288</dim>
					<dim>288</dim>
					<dim>1</dim>
					<dim>1</dim>
				</port>
			</output>
		</layer>
		<layer id="245" name="Conv2D_33" type="Convolution" version="opset1">
			<data auto_pad="valid" dilations="1,1" pads_begin="0,0" pads_end="0,0" strides="1,1"/>
			<input>
				<port id="0">
					<dim>1</dim>
					<dim>288</dim>
					<dim>4</dim>
					<dim>4</dim>
				</port>
				<port id="1">
					<dim>288</dim>
					<dim>288</dim>
					<dim>1</dim>
					<dim>1</dim>
				</port>
			</input>
			<output>
				<port id="2" names="Conv2D_33:0" precision="FP32">
					<dim>1</dim>
					<dim>288</dim>
					<dim>4</dim>
					<dim>4</dim>
				</port>
			</output>
		</layer>
		<layer id="246" name="model_1/model/batch_normalization_52/FusedBatchNormV3_model_1/model/conv2d_46/Conv2D_model_1/model/conv2d_36/Conv2D1/y/EltwiseUnsqueeze10018_const" type="Const" version="opset1">
			<data element_type="f32" offset="7539104" shape="1,288,1,1" size="1152"/>
			<output>
				<port id="0" names="model_1/model/batch_normalization_52/FusedBatchNormV3_model_1/model/conv2d_46/Conv2D_model_1/model/conv2d_36/Conv2D1/y:0" precision="FP32">
					<dim>1</dim>
					<dim>288</dim>
					<dim>1</dim>
					<dim>1</dim>
				</port>
			</output>
		</layer>
		<layer id="247" name="model_1/model/batch_normalization_52/FusedBatchNormV3_model_1/model/conv2d_46/Conv2D_model_1/model/conv2d_36/Conv2D1" type="Add" version="opset1">
			<data auto_broadcast="numpy"/>
			<input>
				<port id="0">
					<dim>1</dim>
					<dim>288</dim>
					<dim>4</dim>
					<dim>4</dim>
				</port>
				<port id="1">
					<dim>1</dim>
					<dim>288</dim>
					<dim>1</dim>
					<dim>1</dim>
				</port>
			</input>
			<output>
				<port id="2" names="model_1/model/batch_normalization_52/FusedBatchNormV3_model_1/model/conv2d_46/Conv2D_model_1/model/conv2d_36/Conv2D1:0" precision="FP32">
					<dim>1</dim>
					<dim>288</dim>
					<dim>4</dim>
					<dim>4</dim>
				</port>
			</output>
		</layer>
		<layer id="248" name="Add_34" type="Add" version="opset1">
			<data auto_broadcast="numpy"/>
			<input>
				<port id="0">
					<dim>1</dim>
					<dim>288</dim>
					<dim>4</dim>
					<dim>4</dim>
				</port>
				<port id="1">
					<dim>1</dim>
					<dim>288</dim>
					<dim>4</dim>
					<dim>4</dim>
				</port>
			</input>
			<output>
				<port id="2" names="Add_34:0" precision="FP32">
					<dim>1</dim>
					<dim>288</dim>
					<dim>4</dim>
					<dim>4</dim>
				</port>
			</output>
		</layer>
		<layer id="249" name="model_1/model/activation_5/Relu_model_1/model/add_12/add" type="ReLU" version="opset1">
			<input>
				<port id="0">
					<dim>1</dim>
					<dim>288</dim>
					<dim>4</dim>
					<dim>4</dim>
				</port>
			</input>
			<output>
				<port id="1" names="model_1/model/activation_5/Relu_model_1/model/add_12/add:0" precision="FP32">
					<dim>1</dim>
					<dim>288</dim>
					<dim>4</dim>
					<dim>4</dim>
				</port>
			</output>
		</layer>
		<layer id="250" name="2236822371_const" type="Const" version="opset1">
			<data element_type="f32" offset="7540256" shape="288,1,1,3,3" size="10368"/>
			<output>
				<port id="0" names="depthwise_19/filter_in:0" precision="FP32">
					<dim>288</dim>
					<dim>1</dim>
					<dim>1</dim>
					<dim>3</dim>
					<dim>3</dim>
				</port>
			</output>
		</layer>
		<layer id="251" name="depthwise_19" type="GroupConvolution" version="opset1">
			<data auto_pad="same_upper" dilations="1,1" pads_begin="0,0" pads_end="0,0" strides="1,1"/>
			<input>
				<port id="0">
					<dim>1</dim>
					<dim>288</dim>
					<dim>4</dim>
					<dim>4</dim>
				</port>
				<port id="1">
					<dim>288</dim>
					<dim>1</dim>
					<dim>1</dim>
					<dim>3</dim>
					<dim>3</dim>
				</port>
			</input>
			<output>
				<port id="2" names="depthwise_19:0" precision="FP32">
					<dim>1</dim>
					<dim>288</dim>
					<dim>4</dim>
					<dim>4</dim>
				</port>
			</output>
		</layer>
		<layer id="252" name="model_1/model/depthwise_conv2d_22/depthwise1/y/EltwiseUnsqueeze10022_const" type="Const" version="opset1">
			<data element_type="f32" offset="7206176" shape="1,288,1,1" size="1152"/>
			<output>
				<port id="0" names="model_1/model/depthwise_conv2d_22/depthwise1/y:0" precision="FP32">
					<dim>1</dim>
					<dim>288</dim>
					<dim>1</dim>
					<dim>1</dim>
				</port>
			</output>
		</layer>
		<layer id="253" name="model_1/model/depthwise_conv2d_22/depthwise1" type="Add" version="opset1">
			<data auto_broadcast="numpy"/>
			<input>
				<port id="0">
					<dim>1</dim>
					<dim>288</dim>
					<dim>4</dim>
					<dim>4</dim>
				</port>
				<port id="1">
					<dim>1</dim>
					<dim>288</dim>
					<dim>1</dim>
					<dim>1</dim>
				</port>
			</input>
			<output>
				<port id="2" names="model_1/model/depthwise_conv2d_22/depthwise1:0" precision="FP32">
					<dim>1</dim>
					<dim>288</dim>
					<dim>4</dim>
					<dim>4</dim>
				</port>
			</output>
		</layer>
		<layer id="254" name="Conv2D_34/Transpose14225_const" type="Const" version="opset1">
			<data element_type="f32" offset="7550624" shape="288,288,1,1" size="331776"/>
			<output>
				<port id="0" names="Conv2D_34/filter:0" precision="FP32">
					<dim>288</dim>
					<dim>288</dim>
					<dim>1</dim>
					<dim>1</dim>
				</port>
			</output>
		</layer>
		<layer id="255" name="Conv2D_34" type="Convolution" version="opset1">
			<data auto_pad="valid" dilations="1,1" pads_begin="0,0" pads_end="0,0" strides="1,1"/>
			<input>
				<port id="0">
					<dim>1</dim>
					<dim>288</dim>
					<dim>4</dim>
					<dim>4</dim>
				</port>
				<port id="1">
					<dim>288</dim>
					<dim>288</dim>
					<dim>1</dim>
					<dim>1</dim>
				</port>
			</input>
			<output>
				<port id="2" names="Conv2D_34:0" precision="FP32">
					<dim>1</dim>
					<dim>288</dim>
					<dim>4</dim>
					<dim>4</dim>
				</port>
			</output>
		</layer>
		<layer id="256" name="model_1/model/batch_normalization_53/FusedBatchNormV3_model_1/model/conv2d_46/Conv2D_model_1/model/conv2d_37/Conv2D1/y/EltwiseUnsqueeze10026_const" type="Const" version="opset1">
			<data element_type="f32" offset="7882400" shape="1,288,1,1" size="1152"/>
			<output>
				<port id="0" names="model_1/model/batch_normalization_53/FusedBatchNormV3_model_1/model/conv2d_46/Conv2D_model_1/model/conv2d_37/Conv2D1/y:0" precision="FP32">
					<dim>1</dim>
					<dim>288</dim>
					<dim>1</dim>
					<dim>1</dim>
				</port>
			</output>
		</layer>
		<layer id="257" name="model_1/model/batch_normalization_53/FusedBatchNormV3_model_1/model/conv2d_46/Conv2D_model_1/model/conv2d_37/Conv2D1" type="Add" version="opset1">
			<data auto_broadcast="numpy"/>
			<input>
				<port id="0">
					<dim>1</dim>
					<dim>288</dim>
					<dim>4</dim>
					<dim>4</dim>
				</port>
				<port id="1">
					<dim>1</dim>
					<dim>288</dim>
					<dim>1</dim>
					<dim>1</dim>
				</port>
			</input>
			<output>
				<port id="2" names="model_1/model/batch_normalization_53/FusedBatchNormV3_model_1/model/conv2d_46/Conv2D_model_1/model/conv2d_37/Conv2D1:0" precision="FP32">
					<dim>1</dim>
					<dim>288</dim>
					<dim>4</dim>
					<dim>4</dim>
				</port>
			</output>
		</layer>
		<layer id="258" name="Add_35" type="Add" version="opset1">
			<data auto_broadcast="numpy"/>
			<input>
				<port id="0">
					<dim>1</dim>
					<dim>288</dim>
					<dim>4</dim>
					<dim>4</dim>
				</port>
				<port id="1">
					<dim>1</dim>
					<dim>288</dim>
					<dim>4</dim>
					<dim>4</dim>
				</port>
			</input>
			<output>
				<port id="2" names="Add_35:0" precision="FP32">
					<dim>1</dim>
					<dim>288</dim>
					<dim>4</dim>
					<dim>4</dim>
				</port>
			</output>
		</layer>
		<layer id="259" name="model_1/model/activation_6/Relu_model_1/model/add_13/add" type="ReLU" version="opset1">
			<input>
				<port id="0">
					<dim>1</dim>
					<dim>288</dim>
					<dim>4</dim>
					<dim>4</dim>
				</port>
			</input>
			<output>
				<port id="1" names="model_1/model/activation_6/Relu_model_1/model/add_13/add:0" precision="FP32">
					<dim>1</dim>
					<dim>288</dim>
					<dim>4</dim>
					<dim>4</dim>
				</port>
			</output>
		</layer>
		<layer id="260" name="2243622439_const" type="Const" version="opset1">
			<data element_type="f32" offset="7883552" shape="288,1,1,3,3" size="10368"/>
			<output>
				<port id="0" names="depthwise_20/filter_in:0" precision="FP32">
					<dim>288</dim>
					<dim>1</dim>
					<dim>1</dim>
					<dim>3</dim>
					<dim>3</dim>
				</port>
			</output>
		</layer>
		<layer id="261" name="depthwise_20" type="GroupConvolution" version="opset1">
			<data auto_pad="same_upper" dilations="1,1" pads_begin="0,0" pads_end="0,0" strides="1,1"/>
			<input>
				<port id="0">
					<dim>1</dim>
					<dim>288</dim>
					<dim>4</dim>
					<dim>4</dim>
				</port>
				<port id="1">
					<dim>288</dim>
					<dim>1</dim>
					<dim>1</dim>
					<dim>3</dim>
					<dim>3</dim>
				</port>
			</input>
			<output>
				<port id="2" names="depthwise_20:0" precision="FP32">
					<dim>1</dim>
					<dim>288</dim>
					<dim>4</dim>
					<dim>4</dim>
				</port>
			</output>
		</layer>
		<layer id="262" name="model_1/model/depthwise_conv2d_23/depthwise1/y/EltwiseUnsqueeze10030_const" type="Const" version="opset1">
			<data element_type="f32" offset="7206176" shape="1,288,1,1" size="1152"/>
			<output>
				<port id="0" names="model_1/model/depthwise_conv2d_23/depthwise1/y:0" precision="FP32">
					<dim>1</dim>
					<dim>288</dim>
					<dim>1</dim>
					<dim>1</dim>
				</port>
			</output>
		</layer>
		<layer id="263" name="model_1/model/depthwise_conv2d_23/depthwise1" type="Add" version="opset1">
			<data auto_broadcast="numpy"/>
			<input>
				<port id="0">
					<dim>1</dim>
					<dim>288</dim>
					<dim>4</dim>
					<dim>4</dim>
				</port>
				<port id="1">
					<dim>1</dim>
					<dim>288</dim>
					<dim>1</dim>
					<dim>1</dim>
				</port>
			</input>
			<output>
				<port id="2" names="model_1/model/depthwise_conv2d_23/depthwise1:0" precision="FP32">
					<dim>1</dim>
					<dim>288</dim>
					<dim>4</dim>
					<dim>4</dim>
				</port>
			</output>
		</layer>
		<layer id="264" name="Conv2D_35/Transpose14233_const" type="Const" version="opset1">
			<data element_type="f32" offset="7893920" shape="288,288,1,1" size="331776"/>
			<output>
				<port id="0" names="Conv2D_35/filter:0" precision="FP32">
					<dim>288</dim>
					<dim>288</dim>
					<dim>1</dim>
					<dim>1</dim>
				</port>
			</output>
		</layer>
		<layer id="265" name="Conv2D_35" type="Convolution" version="opset1">
			<data auto_pad="valid" dilations="1,1" pads_begin="0,0" pads_end="0,0" strides="1,1"/>
			<input>
				<port id="0">
					<dim>1</dim>
					<dim>288</dim>
					<dim>4</dim>
					<dim>4</dim>
				</port>
				<port id="1">
					<dim>288</dim>
					<dim>288</dim>
					<dim>1</dim>
					<dim>1</dim>
				</port>
			</input>
			<output>
				<port id="2" names="Conv2D_35:0" precision="FP32">
					<dim>1</dim>
					<dim>288</dim>
					<dim>4</dim>
					<dim>4</dim>
				</port>
			</output>
		</layer>
		<layer id="266" name="model_1/model/batch_normalization_54/FusedBatchNormV3_model_1/model/conv2d_46/Conv2D_model_1/model/conv2d_38/Conv2D1/y/EltwiseUnsqueeze10034_const" type="Const" version="opset1">
			<data element_type="f32" offset="8225696" shape="1,288,1,1" size="1152"/>
			<output>
				<port id="0" names="model_1/model/batch_normalization_54/FusedBatchNormV3_model_1/model/conv2d_46/Conv2D_model_1/model/conv2d_38/Conv2D1/y:0" precision="FP32">
					<dim>1</dim>
					<dim>288</dim>
					<dim>1</dim>
					<dim>1</dim>
				</port>
			</output>
		</layer>
		<layer id="267" name="model_1/model/batch_normalization_54/FusedBatchNormV3_model_1/model/conv2d_46/Conv2D_model_1/model/conv2d_38/Conv2D1" type="Add" version="opset1">
			<data auto_broadcast="numpy"/>
			<input>
				<port id="0">
					<dim>1</dim>
					<dim>288</dim>
					<dim>4</dim>
					<dim>4</dim>
				</port>
				<port id="1">
					<dim>1</dim>
					<dim>288</dim>
					<dim>1</dim>
					<dim>1</dim>
				</port>
			</input>
			<output>
				<port id="2" names="model_1/model/batch_normalization_54/FusedBatchNormV3_model_1/model/conv2d_46/Conv2D_model_1/model/conv2d_38/Conv2D1:0" precision="FP32">
					<dim>1</dim>
					<dim>288</dim>
					<dim>4</dim>
					<dim>4</dim>
				</port>
			</output>
		</layer>
		<layer id="268" name="Add_36" type="Add" version="opset1">
			<data auto_broadcast="numpy"/>
			<input>
				<port id="0">
					<dim>1</dim>
					<dim>288</dim>
					<dim>4</dim>
					<dim>4</dim>
				</port>
				<port id="1">
					<dim>1</dim>
					<dim>288</dim>
					<dim>4</dim>
					<dim>4</dim>
				</port>
			</input>
			<output>
				<port id="2" names="Add_36:0" precision="FP32">
					<dim>1</dim>
					<dim>288</dim>
					<dim>4</dim>
					<dim>4</dim>
				</port>
			</output>
		</layer>
		<layer id="269" name="model_1/model/activation_7/Relu_model_1/model/add_14/add" type="ReLU" version="opset1">
			<input>
				<port id="0">
					<dim>1</dim>
					<dim>288</dim>
					<dim>4</dim>
					<dim>4</dim>
				</port>
			</input>
			<output>
				<port id="1" names="model_1/model/activation_7/Relu_model_1/model/add_14/add:0" precision="FP32">
					<dim>1</dim>
					<dim>288</dim>
					<dim>4</dim>
					<dim>4</dim>
				</port>
			</output>
		</layer>
		<layer id="270" name="2244822451_const" type="Const" version="opset1">
			<data element_type="f32" offset="8226848" shape="288,1,1,3,3" size="10368"/>
			<output>
				<port id="0" names="depthwise_21/filter_in:0" precision="FP32">
					<dim>288</dim>
					<dim>1</dim>
					<dim>1</dim>
					<dim>3</dim>
					<dim>3</dim>
				</port>
			</output>
		</layer>
		<layer id="271" name="depthwise_21" type="GroupConvolution" version="opset1">
			<data auto_pad="same_upper" dilations="1,1" pads_begin="0,0" pads_end="0,0" strides="1,1"/>
			<input>
				<port id="0">
					<dim>1</dim>
					<dim>288</dim>
					<dim>4</dim>
					<dim>4</dim>
				</port>
				<port id="1">
					<dim>288</dim>
					<dim>1</dim>
					<dim>1</dim>
					<dim>3</dim>
					<dim>3</dim>
				</port>
			</input>
			<output>
				<port id="2" names="depthwise_21:0" precision="FP32">
					<dim>1</dim>
					<dim>288</dim>
					<dim>4</dim>
					<dim>4</dim>
				</port>
			</output>
		</layer>
		<layer id="272" name="model_1/model/depthwise_conv2d_24/depthwise1/y/EltwiseUnsqueeze10038_const" type="Const" version="opset1">
			<data element_type="f32" offset="7206176" shape="1,288,1,1" size="1152"/>
			<output>
				<port id="0" names="model_1/model/depthwise_conv2d_24/depthwise1/y:0" precision="FP32">
					<dim>1</dim>
					<dim>288</dim>
					<dim>1</dim>
					<dim>1</dim>
				</port>
			</output>
		</layer>
		<layer id="273" name="model_1/model/depthwise_conv2d_24/depthwise1" type="Add" version="opset1">
			<data auto_broadcast="numpy"/>
			<input>
				<port id="0">
					<dim>1</dim>
					<dim>288</dim>
					<dim>4</dim>
					<dim>4</dim>
				</port>
				<port id="1">
					<dim>1</dim>
					<dim>288</dim>
					<dim>1</dim>
					<dim>1</dim>
				</port>
			</input>
			<output>
				<port id="2" names="model_1/model/depthwise_conv2d_24/depthwise1:0" precision="FP32">
					<dim>1</dim>
					<dim>288</dim>
					<dim>4</dim>
					<dim>4</dim>
				</port>
			</output>
		</layer>
		<layer id="274" name="Conv2D_36/Transpose14241_const" type="Const" version="opset1">
			<data element_type="f32" offset="8237216" shape="288,288,1,1" size="331776"/>
			<output>
				<port id="0" names="Conv2D_36/filter:0" precision="FP32">
					<dim>288</dim>
					<dim>288</dim>
					<dim>1</dim>
					<dim>1</dim>
				</port>
			</output>
		</layer>
		<layer id="275" name="Conv2D_36" type="Convolution" version="opset1">
			<data auto_pad="valid" dilations="1,1" pads_begin="0,0" pads_end="0,0" strides="1,1"/>
			<input>
				<port id="0">
					<dim>1</dim>
					<dim>288</dim>
					<dim>4</dim>
					<dim>4</dim>
				</port>
				<port id="1">
					<dim>288</dim>
					<dim>288</dim>
					<dim>1</dim>
					<dim>1</dim>
				</port>
			</input>
			<output>
				<port id="2" names="Conv2D_36:0" precision="FP32">
					<dim>1</dim>
					<dim>288</dim>
					<dim>4</dim>
					<dim>4</dim>
				</port>
			</output>
		</layer>
		<layer id="276" name="model_1/model/batch_normalization_55/FusedBatchNormV3_model_1/model/conv2d_46/Conv2D_model_1/model/conv2d_39/Conv2D1/y/EltwiseUnsqueeze10042_const" type="Const" version="opset1">
			<data element_type="f32" offset="8568992" shape="1,288,1,1" size="1152"/>
			<output>
				<port id="0" names="model_1/model/batch_normalization_55/FusedBatchNormV3_model_1/model/conv2d_46/Conv2D_model_1/model/conv2d_39/Conv2D1/y:0" precision="FP32">
					<dim>1</dim>
					<dim>288</dim>
					<dim>1</dim>
					<dim>1</dim>
				</port>
			</output>
		</layer>
		<layer id="277" name="model_1/model/batch_normalization_55/FusedBatchNormV3_model_1/model/conv2d_46/Conv2D_model_1/model/conv2d_39/Conv2D1" type="Add" version="opset1">
			<data auto_broadcast="numpy"/>
			<input>
				<port id="0">
					<dim>1</dim>
					<dim>288</dim>
					<dim>4</dim>
					<dim>4</dim>
				</port>
				<port id="1">
					<dim>1</dim>
					<dim>288</dim>
					<dim>1</dim>
					<dim>1</dim>
				</port>
			</input>
			<output>
				<port id="2" names="model_1/model/batch_normalization_55/FusedBatchNormV3_model_1/model/conv2d_46/Conv2D_model_1/model/conv2d_39/Conv2D1:0" precision="FP32">
					<dim>1</dim>
					<dim>288</dim>
					<dim>4</dim>
					<dim>4</dim>
				</port>
			</output>
		</layer>
		<layer id="278" name="Add_37" type="Add" version="opset1">
			<data auto_broadcast="numpy"/>
			<input>
				<port id="0">
					<dim>1</dim>
					<dim>288</dim>
					<dim>4</dim>
					<dim>4</dim>
				</port>
				<port id="1">
					<dim>1</dim>
					<dim>288</dim>
					<dim>4</dim>
					<dim>4</dim>
				</port>
			</input>
			<output>
				<port id="2" names="Add_37:0" precision="FP32">
					<dim>1</dim>
					<dim>288</dim>
					<dim>4</dim>
					<dim>4</dim>
				</port>
			</output>
		</layer>
		<layer id="279" name="model_1/model/activation_8/Relu_model_1/model/add_15/add" type="ReLU" version="opset1">
			<input>
				<port id="0">
					<dim>1</dim>
					<dim>288</dim>
					<dim>4</dim>
					<dim>4</dim>
				</port>
			</input>
			<output>
				<port id="1" names="model_1/model/activation_8/Relu_model_1/model/add_15/add:0" precision="FP32">
					<dim>1</dim>
					<dim>288</dim>
					<dim>4</dim>
					<dim>4</dim>
				</port>
			</output>
		</layer>
		<layer id="280" name="2246822471_const" type="Const" version="opset1">
			<data element_type="f32" offset="8570144" shape="288,1,1,3,3" size="10368"/>
			<output>
				<port id="0" names="depthwise_22/filter_in:0" precision="FP32">
					<dim>288</dim>
					<dim>1</dim>
					<dim>1</dim>
					<dim>3</dim>
					<dim>3</dim>
				</port>
			</output>
		</layer>
		<layer id="281" name="depthwise_22" type="GroupConvolution" version="opset1">
			<data auto_pad="same_upper" dilations="1,1" pads_begin="0,0" pads_end="0,0" strides="1,1"/>
			<input>
				<port id="0">
					<dim>1</dim>
					<dim>288</dim>
					<dim>4</dim>
					<dim>4</dim>
				</port>
				<port id="1">
					<dim>288</dim>
					<dim>1</dim>
					<dim>1</dim>
					<dim>3</dim>
					<dim>3</dim>
				</port>
			</input>
			<output>
				<port id="2" names="depthwise_22:0" precision="FP32">
					<dim>1</dim>
					<dim>288</dim>
					<dim>4</dim>
					<dim>4</dim>
				</port>
			</output>
		</layer>
		<layer id="282" name="model_1/model/depthwise_conv2d_25/depthwise1/y/EltwiseUnsqueeze10046_const" type="Const" version="opset1">
			<data element_type="f32" offset="7206176" shape="1,288,1,1" size="1152"/>
			<output>
				<port id="0" names="model_1/model/depthwise_conv2d_25/depthwise1/y:0" precision="FP32">
					<dim>1</dim>
					<dim>288</dim>
					<dim>1</dim>
					<dim>1</dim>
				</port>
			</output>
		</layer>
		<layer id="283" name="model_1/model/depthwise_conv2d_25/depthwise1" type="Add" version="opset1">
			<data auto_broadcast="numpy"/>
			<input>
				<port id="0">
					<dim>1</dim>
					<dim>288</dim>
					<dim>4</dim>
					<dim>4</dim>
				</port>
				<port id="1">
					<dim>1</dim>
					<dim>288</dim>
					<dim>1</dim>
					<dim>1</dim>
				</port>
			</input>
			<output>
				<port id="2" names="model_1/model/depthwise_conv2d_25/depthwise1:0" precision="FP32">
					<dim>1</dim>
					<dim>288</dim>
					<dim>4</dim>
					<dim>4</dim>
				</port>
			</output>
		</layer>
		<layer id="284" name="Conv2D_37/Transpose14249_const" type="Const" version="opset1">
			<data element_type="f32" offset="8580512" shape="288,288,1,1" size="331776"/>
			<output>
				<port id="0" names="Conv2D_37/filter:0" precision="FP32">
					<dim>288</dim>
					<dim>288</dim>
					<dim>1</dim>
					<dim>1</dim>
				</port>
			</output>
		</layer>
		<layer id="285" name="Conv2D_37" type="Convolution" version="opset1">
			<data auto_pad="valid" dilations="1,1" pads_begin="0,0" pads_end="0,0" strides="1,1"/>
			<input>
				<port id="0">
					<dim>1</dim>
					<dim>288</dim>
					<dim>4</dim>
					<dim>4</dim>
				</port>
				<port id="1">
					<dim>288</dim>
					<dim>288</dim>
					<dim>1</dim>
					<dim>1</dim>
				</port>
			</input>
			<output>
				<port id="2" names="Conv2D_37:0" precision="FP32">
					<dim>1</dim>
					<dim>288</dim>
					<dim>4</dim>
					<dim>4</dim>
				</port>
			</output>
		</layer>
		<layer id="286" name="model_1/model/batch_normalization_56/FusedBatchNormV3_model_1/model/conv2d_46/Conv2D_model_1/model/conv2d_40/Conv2D1/y/EltwiseUnsqueeze10050_const" type="Const" version="opset1">
			<data element_type="f32" offset="8912288" shape="1,288,1,1" size="1152"/>
			<output>
				<port id="0" names="model_1/model/batch_normalization_56/FusedBatchNormV3_model_1/model/conv2d_46/Conv2D_model_1/model/conv2d_40/Conv2D1/y:0" precision="FP32">
					<dim>1</dim>
					<dim>288</dim>
					<dim>1</dim>
					<dim>1</dim>
				</port>
			</output>
		</layer>
		<layer id="287" name="model_1/model/batch_normalization_56/FusedBatchNormV3_model_1/model/conv2d_46/Conv2D_model_1/model/conv2d_40/Conv2D1" type="Add" version="opset1">
			<data auto_broadcast="numpy"/>
			<input>
				<port id="0">
…
			<output>
				<port id="2" names="Add_53:0" precision="FP32">
					<dim>1</dim>
					<dim>8</dim>
					<dim>256</dim>
					<dim>256</dim>
				</port>
			</output>
		</layer>
		<layer id="537" name="model_1/model/activation_21/Relu_model_1/model/add_27/add" type="ReLU" version="opset1">
			<input>
				<port id="0">
					<dim>1</dim>
					<dim>8</dim>
					<dim>256</dim>
					<dim>256</dim>
				</port>
			</input>
			<output>
				<port id="1" names="model_1/model/activation_21/Relu_model_1/model/add_27/add:0" precision="FP32">
					<dim>1</dim>
					<dim>8</dim>
					<dim>256</dim>
					<dim>256</dim>
				</port>
			</output>
		</layer>
		<layer id="538" name="Conv2D_57/Transpose14389_const" type="Const" version="opset1">
			<data element_type="f32" offset="12115584" shape="1,8,3,3" size="288"/>
			<output>
				<port id="0" names="Conv2D_57/filter:0" precision="FP32">
					<dim>1</dim>
					<dim>8</dim>
					<dim>3</dim>
					<dim>3</dim>
				</port>
			</output>
		</layer>
		<layer id="539" name="Conv2D_57" type="Convolution" version="opset1">
			<data auto_pad="same_upper" dilations="1,1" pads_begin="0,0" pads_end="0,0" strides="1,1"/>
			<input>
				<port id="0">
					<dim>1</dim>
					<dim>8</dim>
					<dim>256</dim>
					<dim>256</dim>
				</port>
				<port id="1">
					<dim>1</dim>
					<dim>8</dim>
					<dim>3</dim>
					<dim>3</dim>
				</port>
			</input>
			<output>
				<port id="2" names="Conv2D_57:0" precision="FP32">
					<dim>1</dim>
					<dim>1</dim>
					<dim>256</dim>
					<dim>256</dim>
				</port>
			</output>
		</layer>
		<layer id="540" name="output_segmentation/y/EltwiseUnsqueeze10190_const" type="Const" version="opset1">
			<data element_type="f32" offset="12115872" shape="1,1,1,1" size="4"/>
			<output>
				<port id="0" names="output_segmentation/y:0" precision="FP32">
					<dim>1</dim>
					<dim>1</dim>
					<dim>1</dim>
					<dim>1</dim>
				</port>
			</output>
		</layer>
		<layer id="541" name="output_segmentation" type="Add" version="opset1">
			<data auto_broadcast="numpy"/>
			<input>
				<port id="0">
					<dim>1</dim>
					<dim>1</dim>
					<dim>256</dim>
					<dim>256</dim>
				</port>
				<port id="1">
					<dim>1</dim>
					<dim>1</dim>
					<dim>1</dim>
					<dim>1</dim>
				</port>
			</input>
			<output>
				<port id="2" precision="FP32">
					<dim>1</dim>
					<dim>1</dim>
					<dim>256</dim>
					<dim>256</dim>
				</port>
			</output>
		</layer>
		<layer id="542" name="output_segmentation/sink_port_0" type="Result" version="opset1">
			<input>
				<port id="0">
					<dim>1</dim>
					<dim>1</dim>
					<dim>256</dim>
					<dim>256</dim>
				</port>
			</input>
		</layer>
		<layer id="543" name="Conv2D_52/Transpose14393_const" type="Const" version="opset1">
			<data element_type="f32" offset="12115876" shape="39,48,1,1" size="7488"/>
			<output>
				<port id="0" names="Conv2D_52/filter:0" precision="FP32">
					<dim>39</dim>
					<dim>48</dim>
					<dim>1</dim>
					<dim>1</dim>
				</port>
			</output>
		</layer>
		<layer id="544" name="Conv2D_52" type="Convolution" version="opset1">
			<data auto_pad="same_upper" dilations="1,1" pads_begin="0,0" pads_end="0,0" strides="1,1"/>
			<input>
				<port id="0">
					<dim>1</dim>
					<dim>48</dim>
					<dim>64</dim>
					<dim>64</dim>
				</port>
				<port id="1">
					<dim>39</dim>
					<dim>48</dim>
					<dim>1</dim>
					<dim>1</dim>
				</port>
			</input>
			<output>
				<port id="2" names="Conv2D_52:0" precision="FP32">
					<dim>1</dim>
					<dim>39</dim>
					<dim>64</dim>
					<dim>64</dim>
				</port>
			</output>
		</layer>
		<layer id="545" name="output_heatmap/y/EltwiseUnsqueeze10194_const" type="Const" version="opset1">
			<data element_type="f32" offset="12123364" shape="1,39,1,1" size="156"/>
			<output>
				<port id="0" names="output_heatmap/y:0" precision="FP32">
					<dim>1</dim>
					<dim>39</dim>
					<dim>1</dim>
					<dim>1</dim>
				</port>
			</output>
		</layer>
		<layer id="546" name="output_heatmap" type="Add" version="opset1">
			<data auto_broadcast="numpy"/>
			<input>
				<port id="0">
					<dim>1</dim>
					<dim>39</dim>
					<dim>64</dim>
					<dim>64</dim>
				</port>
				<port id="1">
					<dim>1</dim>
					<dim>39</dim>
					<dim>1</dim>
					<dim>1</dim>
				</port>
			</input>
			<output>
				<port id="2" precision="FP32">
					<dim>1</dim>
					<dim>39</dim>
					<dim>64</dim>
					<dim>64</dim>
				</port>
			</output>
		</layer>
		<layer id="547" name="output_heatmap/sink_port_0" type="Result" version="opset1">
			<input>
				<port id="0">
					<dim>1</dim>
					<dim>39</dim>
					<dim>64</dim>
					<dim>64</dim>
				</port>
			</input>
		</layer>
		<layer id="548" name="Conv2D_45/Transpose14397_const" type="Const" version="opset1">
			<data element_type="f32" offset="12123520" shape="117,288,2,2" size="539136"/>
			<output>
				<port id="0" names="Conv2D_45/filter:0" precision="FP32">
					<dim>117</dim>
					<dim>288</dim>
					<dim>2</dim>
					<dim>2</dim>
				</port>
			</output>
		</layer>
		<layer id="549" name="Conv2D_45" type="Convolution" version="opset1">
			<data auto_pad="valid" dilations="1,1" pads_begin="0,0" pads_end="0,0" strides="1,1"/>
			<input>
				<port id="0">
					<dim>1</dim>
					<dim>288</dim>
					<dim>2</dim>
					<dim>2</dim>
				</port>
				<port id="1">
					<dim>117</dim>
					<dim>288</dim>
					<dim>2</dim>
					<dim>2</dim>
				</port>
			</input>
			<output>
				<port id="2" names="Conv2D_45:0" precision="FP32">
					<dim>1</dim>
					<dim>117</dim>
					<dim>1</dim>
					<dim>1</dim>
				</port>
			</output>
		</layer>
		<layer id="550" name="model_1/model/convworld_3d/BiasAdd_model_1/model/convworld_3d/Conv2D_model_1/model/convworld_3d/BiasAdd/ReadVariableOp/resource1/y/EltwiseUnsqueeze10198_const" type="Const" version="opset1">
			<data element_type="f32" offset="12662656" shape="1,117,1,1" size="468"/>
			<output>
				<port id="0" names="model_1/model/convworld_3d/BiasAdd_model_1/model/convworld_3d/Conv2D_model_1/model/convworld_3d/BiasAdd/ReadVariableOp/resource1/y:0" precision="FP32">
					<dim>1</dim>
					<dim>117</dim>
					<dim>1</dim>
					<dim>1</dim>
				</port>
			</output>
		</layer>
		<layer id="551" name="model_1/model/convworld_3d/BiasAdd_model_1/model/convworld_3d/Conv2D_model_1/model/convworld_3d/BiasAdd/ReadVariableOp/resource1" type="Add" version="opset1">
			<data auto_broadcast="numpy"/>
			<input>
				<port id="0">
					<dim>1</dim>
					<dim>117</dim>
					<dim>1</dim>
					<dim>1</dim>
				</port>
				<port id="1">
					<dim>1</dim>
					<dim>117</dim>
					<dim>1</dim>
					<dim>1</dim>
				</port>
			</input>
			<output>
				<port id="2" precision="FP32">
					<dim>1</dim>
					<dim>117</dim>
					<dim>1</dim>
					<dim>1</dim>
				</port>
			</output>
		</layer>
		<layer id="552" name="model_1/model/convworld_3d/BiasAdd_model_1/model/convworld_3d/Conv2D_model_1/model/convworld_3d/BiasAdd/ReadVariableOp/resource1/Transpose/Cast_123011_const" type="Const" version="opset1">
			<data element_type="i64" offset="11872556" shape="4" size="32"/>
			<output>
				<port id="0" precision="I64">
					<dim>4</dim>
				</port>
			</output>
		</layer>
		<layer id="553" name="model_1/model/convworld_3d/BiasAdd_model_1/model/convworld_3d/Conv2D_model_1/model/convworld_3d/BiasAdd/ReadVariableOp/resource1/Transpose" type="Transpose" version="opset1">
			<input>
				<port id="0">
					<dim>1</dim>
					<dim>117</dim>
					<dim>1</dim>
					<dim>1</dim>
				</port>
				<port id="1">
					<dim>4</dim>
				</port>
			</input>
			<output>
				<port id="2" names="model_1/model/convworld_3d/BiasAdd_model_1/model/convworld_3d/Conv2D_model_1/model/convworld_3d/BiasAdd/ReadVariableOp/resource1:0" precision="FP32">
					<dim>1</dim>
					<dim>1</dim>
					<dim>1</dim>
					<dim>117</dim>
				</port>
			</output>
		</layer>
		<layer id="554" name="world_3d/Cast_122977_const" type="Const" version="opset1">
			<data element_type="i64" offset="12663124" shape="2" size="16"/>
			<output>
				<port id="0" names="world_3d/shape:0" precision="I64">
					<dim>2</dim>
				</port>
			</output>
		</layer>
		<layer id="555" name="world_3d" type="Reshape" version="opset1">
			<data special_zero="false"/>
			<input>
				<port id="0">
					<dim>1</dim>
					<dim>1</dim>
					<dim>1</dim>
					<dim>117</dim>
				</port>
				<port id="1">
					<dim>2</dim>
				</port>
			</input>
			<output>
				<port id="2" precision="FP32">
					<dim>1</dim>
					<dim>117</dim>
				</port>
			</output>
		</layer>
		<layer id="556" name="world_3d/sink_port_0" type="Result" version="opset1">
			<input>
				<port id="0">
					<dim>1</dim>
					<dim>117</dim>
				</port>
			</input>
		</layer>
	</layers>
	<edges>
		<edge from-layer="0" from-port="0" to-layer="2" to-port="0"/>
		<edge from-layer="1" from-port="0" to-layer="2" to-port="1"/>
		<edge from-layer="2" from-port="2" to-layer="4" to-port="0"/>
		<edge from-layer="3" from-port="0" to-layer="4" to-port="1"/>
		<edge from-layer="4" from-port="2" to-layer="5" to-port="0"/>
		<edge from-layer="5" from-port="1" to-layer="7" to-port="0"/>
		<edge from-layer="6" from-port="0" to-layer="7" to-port="1"/>
		<edge from-layer="7" from-port="2" to-layer="9" to-port="0"/>
		<edge from-layer="8" from-port="0" to-layer="9" to-port="1"/>
		<edge from-layer="9" from-port="2" to-layer="10" to-port="0"/>
		<edge from-layer="10" from-port="1" to-layer="12" to-port="0"/>
		<edge from-layer="11" from-port="0" to-layer="12" to-port="1"/>
		<edge from-layer="12" from-port="2" to-layer="14" to-port="0"/>
		<edge from-layer="13" from-port="0" to-layer="14" to-port="1"/>
		<edge from-layer="14" from-port="2" to-layer="16" to-port="0"/>
		<edge from-layer="15" from-port="0" to-layer="16" to-port="1"/>
		<edge from-layer="16" from-port="2" to-layer="18" to-port="0"/>
		<edge from-layer="17" from-port="0" to-layer="18" to-port="1"/>
		<edge from-layer="18" from-port="2" to-layer="19" to-port="0"/>
		<edge from-layer="19" from-port="1" to-layer="21" to-port="0"/>
		<edge from-layer="20" from-port="0" to-layer="21" to-port="1"/>
		<edge from-layer="21" from-port="2" to-layer="23" to-port="0"/>
		<edge from-layer="22" from-port="0" to-layer="23" to-port="1"/>
		<edge from-layer="23" from-port="2" to-layer="24" to-port="0"/>
		<edge from-layer="24" from-port="1" to-layer="26" to-port="0"/>
		<edge from-layer="25" from-port="0" to-layer="26" to-port="1"/>
		<edge from-layer="26" from-port="2" to-layer="28" to-port="0"/>
		<edge from-layer="27" from-port="0" to-layer="28" to-port="1"/>
		<edge from-layer="28" from-port="2" to-layer="30" to-port="0"/>
		<edge from-layer="29" from-port="0" to-layer="30" to-port="1"/>
		<edge from-layer="30" from-port="2" to-layer="32" to-port="0"/>
		<edge from-layer="31" from-port="0" to-layer="32" to-port="1"/>
		<edge from-layer="32" from-port="2" to-layer="33" to-port="0"/>
		<edge from-layer="33" from-port="1" to-layer="35" to-port="0"/>
		<edge from-layer="34" from-port="0" to-layer="35" to-port="1"/>
		<edge from-layer="35" from-port="2" to-layer="37" to-port="0"/>
		<edge from-layer="36" from-port="0" to-layer="37" to-port="1"/>
		<edge from-layer="37" from-port="2" to-layer="38" to-port="0"/>
		<edge from-layer="38" from-port="1" to-layer="40" to-port="0"/>
		<edge from-layer="39" from-port="0" to-layer="40" to-port="1"/>
		<edge from-layer="40" from-port="2" to-layer="42" to-port="0"/>
		<edge from-layer="41" from-port="0" to-layer="42" to-port="1"/>
		<edge from-layer="42" from-port="2" to-layer="43" to-port="0"/>
		<edge from-layer="28" from-port="2" to-layer="43" to-port="1"/>
		<edge from-layer="43" from-port="2" to-layer="45" to-port="0"/>
		<edge from-layer="44" from-port="0" to-layer="45" to-port="1"/>
		<edge from-layer="45" from-port="2" to-layer="47" to-port="0"/>
		<edge from-layer="46" from-port="0" to-layer="47" to-port="1"/>
		<edge from-layer="47" from-port="2" to-layer="48" to-port="0"/>
		<edge from-layer="48" from-port="1" to-layer="50" to-port="0"/>
		<edge from-layer="49" from-port="0" to-layer="50" to-port="1"/>
		<edge from-layer="50" from-port="2" to-layer="52" to-port="0"/>
		<edge from-layer="51" from-port="0" to-layer="52" to-port="1"/>
		<edge from-layer="52" from-port="2" to-layer="53" to-port="0"/>
		<edge from-layer="53" from-port="1" to-layer="55" to-port="0"/>
		<edge from-layer="54" from-port="0" to-layer="55" to-port="1"/>
		<edge from-layer="55" from-port="2" to-layer="57" to-port="0"/>
		<edge from-layer="56" from-port="0" to-layer="57" to-port="1"/>
		<edge from-layer="57" from-port="2" to-layer="59" to-port="0"/>
		<edge from-layer="58" from-port="0" to-layer="59" to-port="1"/>
		<edge from-layer="59" from-port="2" to-layer="61" to-port="0"/>
		<edge from-layer="60" from-port="0" to-layer="61" to-port="1"/>
		<edge from-layer="61" from-port="2" to-layer="62" to-port="0"/>
		<edge from-layer="62" from-port="1" to-layer="64" to-port="0"/>
		<edge from-layer="63" from-port="0" to-layer="64" to-port="1"/>
		<edge from-layer="64" from-port="2" to-layer="66" to-port="0"/>
		<edge from-layer="65" from-port="0" to-layer="66" to-port="1"/>
		<edge from-layer="66" from-port="2" to-layer="67" to-port="0"/>
		<edge from-layer="67" from-port="1" to-layer="69" to-port="0"/>
		<edge from-layer="68" from-port="0" to-layer="69" to-port="1"/>
		<edge from-layer="69" from-port="2" to-layer="71" to-port="0"/>
		<edge from-layer="70" from-port="0" to-layer="71" to-port="1"/>
		<edge from-layer="71" from-port="2" to-layer="72" to-port="0"/>
		<edge from-layer="57" from-port="2" to-layer="72" to-port="1"/>
		<edge from-layer="72" from-port="2" to-layer="74" to-port="0"/>
		<edge from-layer="73" from-port="0" to-layer="74" to-port="1"/>
		<edge from-layer="74" from-port="2" to-layer="76" to-port="0"/>
		<edge from-layer="75" from-port="0" to-layer="76" to-port="1"/>
		<edge from-layer="76" from-port="2" to-layer="77" to-port="0"/>
		<edge from-layer="77" from-port="1" to-layer="79" to-port="0"/>
		<edge from-layer="78" from-port="0" to-layer="79" to-port="1"/>
		<edge from-layer="79" from-port="2" to-layer="81" to-port="0"/>
		<edge from-layer="80" from-port="0" to-layer="81" to-port="1"/>
		<edge from-layer="81" from-port="2" to-layer="82" to-port="0"/>
		<edge from-layer="82" from-port="1" to-layer="84" to-port="0"/>
		<edge from-layer="83" from-port="0" to-layer="84" to-port="1"/>
		<edge from-layer="84" from-port="2" to-layer="86" to-port="0"/>
		<edge from-layer="85" from-port="0" to-layer="86" to-port="1"/>
		<edge from-layer="86" from-port="2" to-layer="88" to-port="0"/>
		<edge from-layer="87" from-port="0" to-layer="88" to-port="1"/>
		<edge from-layer="88" from-port="2" to-layer="90" to-port="0"/>
		<edge from-layer="89" from-port="0" to-layer="90" to-port="1"/>
		<edge from-layer="90" from-port="2" to-layer="91" to-port="0"/>
		<edge from-layer="91" from-port="1" to-layer="93" to-port="0"/>
		<edge from-layer="92" from-port="0" to-layer="93" to-port="1"/>
		<edge from-layer="93" from-port="2" to-layer="95" to-port="0"/>
		<edge from-layer="94" from-port="0" to-layer="95" to-port="1"/>
		<edge from-layer="95" from-port="2" to-layer="96" to-port="0"/>
		<edge from-layer="96" from-port="1" to-layer="98" to-port="0"/>
		<edge from-layer="97" from-port="0" to-layer="98" to-port="1"/>
		<edge from-layer="98" from-port="2" to-layer="100" to-port="0"/>
		<edge from-layer="99" from-port="0" to-layer="100" to-port="1"/>
		<edge from-layer="100" from-port="2" to-layer="101" to-port="0"/>
		<edge from-layer="86" from-port="2" to-layer="101" to-port="1"/>
		<edge from-layer="101" from-port="2" to-layer="103" to-port="0"/>
		<edge from-layer="102" from-port="0" to-layer="103" to-port="1"/>
		<edge from-layer="103" from-port="2" to-layer="105" to-port="0"/>
		<edge from-layer="104" from-port="0" to-layer="105" to-port="1"/>
		<edge from-layer="105" from-port="2" to-layer="106" to-port="0"/>
		<edge from-layer="106" from-port="1" to-layer="108" to-port="0"/>
		<edge from-layer="107" from-port="0" to-layer="108" to-port="1"/>
		<edge from-layer="108" from-port="2" to-layer="110" to-port="0"/>
		<edge from-layer="109" from-port="0" to-layer="110" to-port="1"/>
		<edge from-layer="110" from-port="2" to-layer="111" to-port="0"/>
		<edge from-layer="111" from-port="1" to-layer="113" to-port="0"/>
		<edge from-layer="112" from-port="0" to-layer="113" to-port="1"/>
		<edge from-layer="113" from-port="2" to-layer="115" to-port="0"/>
		<edge from-layer="114" from-port="0" to-layer="115" to-port="1"/>
		<edge from-layer="115" from-port="2" to-layer="116" to-port="0"/>
		<edge from-layer="101" from-port="2" to-layer="116" to-port="1"/>
		<edge from-layer="116" from-port="2" to-layer="118" to-port="0"/>
		<edge from-layer="117" from-port="0" to-layer="118" to-port="1"/>
		<edge from-layer="118" from-port="2" to-layer="120" to-port="0"/>
		<edge from-layer="119" from-port="0" to-layer="120" to-port="1"/>
		<edge from-layer="120" from-port="2" to-layer="121" to-port="0"/>
		<edge from-layer="121" from-port="1" to-layer="123" to-port="0"/>
		<edge from-layer="122" from-port="0" to-layer="123" to-port="1"/>
		<edge from-layer="123" from-port="2" to-layer="125" to-port="0"/>
		<edge from-layer="124" from-port="0" to-layer="125" to-port="1"/>
		<edge from-layer="125" from-port="2" to-layer="126" to-port="0"/>
		<edge from-layer="126" from-port="1" to-layer="128" to-port="0"/>
		<edge from-layer="127" from-port="0" to-layer="128" to-port="1"/>
		<edge from-layer="128" from-port="2" to-layer="130" to-port="0"/>
		<edge from-layer="129" from-port="0" to-layer="130" to-port="1"/>
		<edge from-layer="130" from-port="2" to-layer="132" to-port="0"/>
		<edge from-layer="131" from-port="0" to-layer="132" to-port="1"/>
		<edge from-layer="132" from-port="2" to-layer="134" to-port="0"/>
		<edge from-layer="133" from-port="0" to-layer="134" to-port="1"/>
		<edge from-layer="134" from-port="2" to-layer="135" to-port="0"/>
		<edge from-layer="135" from-port="1" to-layer="137" to-port="0"/>
		<edge from-layer="136" from-port="0" to-layer="137" to-port="1"/>
		<edge from-layer="137" from-port="2" to-layer="139" to-port="0"/>
		<edge from-layer="138" from-port="0" to-layer="139" to-port="1"/>
		<edge from-layer="139" from-port="2" to-layer="140" to-port="0"/>
		<edge from-layer="140" from-port="1" to-layer="142" to-port="0"/>
		<edge from-layer="141" from-port="0" to-layer="142" to-port="1"/>
		<edge from-layer="142" from-port="2" to-layer="144" to-port="0"/>
		<edge from-layer="143" from-port="0" to-layer="144" to-port="1"/>
		<edge from-layer="144" from-port="2" to-layer="145" to-port="0"/>
		<edge from-layer="130" from-port="2" to-layer="145" to-port="1"/>
		<edge from-layer="145" from-port="2" to-layer="147" to-port="0"/>
		<edge from-layer="146" from-port="0" to-layer="147" to-port="1"/>
		<edge from-layer="147" from-port="2" to-layer="149" to-port="0"/>
		<edge from-layer="148" from-port="0" to-layer="149" to-port="1"/>
		<edge from-layer="149" from-port="2" to-layer="150" to-port="0"/>
		<edge from-layer="150" from-port="1" to-layer="152" to-port="0"/>
		<edge from-layer="151" from-port="0" to-layer="152" to-port="1"/>
		<edge from-layer="152" from-port="2" to-layer="154" to-port="0"/>
		<edge from-layer="153" from-port="0" to-layer="154" to-port="1"/>
		<edge from-layer="154" from-port="2" to-layer="155" to-port="0"/>
		<edge from-layer="155" from-port="1" to-layer="157" to-port="0"/>
		<edge from-layer="156" from-port="0" to-layer="157" to-port="1"/>
		<edge from-layer="157" from-port="2" to-layer="159" to-port="0"/>
		<edge from-layer="158" from-port="0" to-layer="159" to-port="1"/>
		<edge from-layer="159" from-port="2" to-layer="160" to-port="0"/>
		<edge from-layer="145" from-port="2" to-layer="160" to-port="1"/>
		<edge from-layer="160" from-port="2" to-layer="162" to-port="0"/>
		<edge from-layer="161" from-port="0" to-layer="162" to-port="1"/>
		<edge from-layer="162" from-port="2" to-layer="164" to-port="0"/>
		<edge from-layer="163" from-port="0" to-layer="164" to-port="1"/>
		<edge from-layer="164" from-port="2" to-layer="165" to-port="0"/>
		<edge from-layer="165" from-port="1" to-layer="167" to-port="0"/>
		<edge from-layer="166" from-port="0" to-layer="167" to-port="1"/>
		<edge from-layer="167" from-port="2" to-layer="169" to-port="0"/>
		<edge from-layer="168" from-port="0" to-layer="169" to-port="1"/>
		<edge from-layer="169" from-port="2" to-layer="170" to-port="0"/>
		<edge from-layer="170" from-port="1" to-layer="172" to-port="0"/>
		<edge from-layer="171" from-port="0" to-layer="172" to-port="1"/>
		<edge from-layer="172" from-port="2" to-layer="174" to-port="0"/>
		<edge from-layer="173" from-port="0" to-layer="174" to-port="1"/>
		<edge from-layer="174" from-port="2" to-layer="176" to-port="0"/>
		<edge from-layer="175" from-port="0" to-layer="176" to-port="1"/>
		<edge from-layer="176" from-port="2" to-layer="178" to-port="0"/>
		<edge from-layer="177" from-port="0" to-layer="178" to-port="1"/>
		<edge from-layer="178" from-port="2" to-layer="179" to-port="0"/>
		<edge from-layer="179" from-port="1" to-layer="181" to-port="0"/>
		<edge from-layer="180" from-port="0" to-layer="181" to-port="1"/>
		<edge from-layer="181" from-port="2" to-layer="183" to-port="0"/>
		<edge from-layer="182" from-port="0" to-layer="183" to-port="1"/>
		<edge from-layer="183" from-port="2" to-layer="184" to-port="0"/>
		<edge from-layer="184" from-port="1" to-layer="186" to-port="0"/>
		<edge from-layer="185" from-port="0" to-layer="186" to-port="1"/>
		<edge from-layer="186" from-port="2" to-layer="188" to-port="0"/>
		<edge from-layer="187" from-port="0" to-layer="188" to-port="1"/>
		<edge from-layer="188" from-port="2" to-layer="189" to-port="0"/>
		<edge from-layer="174" from-port="2" to-layer="189" to-port="1"/>
		<edge from-layer="189" from-port="2" to-layer="191" to-port="0"/>
		<edge from-layer="190" from-port="0" to-layer="191" to-port="1"/>
		<edge from-layer="191" from-port="2" to-layer="193" to-port="0"/>
		<edge from-layer="192" from-port="0" to-layer="193" to-port="1"/>
		<edge from-layer="193" from-port="2" to-layer="194" to-port="0"/>
		<edge from-layer="194" from-port="1" to-layer="196" to-port="0"/>
		<edge from-layer="195" from-port="0" to-layer="196" to-port="1"/>
		<edge from-layer="196" from-port="2" to-layer="198" to-port="0"/>
		<edge from-layer="197" from-port="0" to-layer="198" to-port="1"/>
		<edge from-layer="198" from-port="2" to-layer="199" to-port="0"/>
		<edge from-layer="199" from-port="1" to-layer="201" to-port="0"/>
		<edge from-layer="200" from-port="0" to-layer="201" to-port="1"/>
		<edge from-layer="201" from-port="2" to-layer="203" to-port="0"/>
		<edge from-layer="202" from-port="0" to-layer="203" to-port="1"/>
		<edge from-layer="203" from-port="2" to-layer="204" to-port="0"/>
		<edge from-layer="189" from-port="2" to-layer="204" to-port="1"/>
		<edge from-layer="204" from-port="2" to-layer="206" to-port="0"/>
		<edge from-layer="205" from-port="0" to-layer="206" to-port="1"/>
		<edge from-layer="206" from-port="2" to-layer="208" to-port="0"/>
		<edge from-layer="207" from-port="0" to-layer="208" to-port="1"/>
		<edge from-layer="208" from-port="2" to-layer="209" to-port="0"/>
		<edge from-layer="209" from-port="1" to-layer="211" to-port="0"/>
		<edge from-layer="210" from-port="0" to-layer="211" to-port="1"/>
		<edge from-layer="211" from-port="2" to-layer="213" to-port="0"/>
		<edge from-layer="212" from-port="0" to-layer="213" to-port="1"/>
		<edge from-layer="213" from-port="2" to-layer="214" to-port="0"/>
		<edge from-layer="214" from-port="1" to-layer="216" to-port="0"/>
		<edge from-layer="215" from-port="0" to-layer="216" to-port="1"/>
		<edge from-layer="216" from-port="2" to-layer="218" to-port="0"/>
		<edge from-layer="217" from-port="0" to-layer="218" to-port="1"/>
		<edge from-layer="218" from-port="2" to-layer="219" to-port="0"/>
		<edge from-layer="204" from-port="2" to-layer="219" to-port="1"/>
		<edge from-layer="219" from-port="2" to-layer="221" to-port="0"/>
		<edge from-layer="220" from-port="0" to-layer="221" to-port="1"/>
		<edge from-layer="221" from-port="2" to-layer="223" to-port="0"/>
		<edge from-layer="222" from-port="0" to-layer="223" to-port="1"/>
		<edge from-layer="223" from-port="2" to-layer="224" to-port="0"/>
		<edge from-layer="224" from-port="1" to-layer="226" to-port="0"/>
		<edge from-layer="225" from-port="0" to-layer="226" to-port="1"/>
		<edge from-layer="226" from-port="2" to-layer="228" to-port="0"/>
		<edge from-layer="227" from-port="0" to-layer="228" to-port="1"/>
		<edge from-layer="228" from-port="2" to-layer="229" to-port="0"/>
		<edge from-layer="229" from-port="1" to-layer="231" to-port="0"/>
		<edge from-layer="230" from-port="0" to-layer="231" to-port="1"/>
		<edge from-layer="231" from-port="2" to-layer="233" to-port="0"/>
		<edge from-layer="232" from-port="0" to-layer="233" to-port="1"/>
		<edge from-layer="233" from-port="2" to-layer="235" to-port="0"/>
		<edge from-layer="234" from-port="0" to-layer="235" to-port="1"/>
		<edge from-layer="235" from-port="2" to-layer="237" to-port="0"/>
		<edge from-layer="236" from-port="0" to-layer="237" to-port="1"/>
		<edge from-layer="237" from-port="2" to-layer="238" to-port="0"/>
		<edge from-layer="238" from-port="1" to-layer="239" to-port="0"/>
		<edge from-layer="238" from-port="1" to-layer="241" to-port="0"/>
		<edge from-layer="240" from-port="0" to-layer="241" to-port="1"/>
		<edge from-layer="241" from-port="2" to-layer="243" to-port="0"/>
		<edge from-layer="242" from-port="0" to-layer="243" to-port="1"/>
		<edge from-layer="243" from-port="2" to-layer="245" to-port="0"/>
		<edge from-layer="244" from-port="0" to-layer="245" to-port="1"/>
		<edge from-layer="245" from-port="2" to-layer="247" to-port="0"/>
		<edge from-layer="246" from-port="0" to-layer="247" to-port="1"/>
		<edge from-layer="239" from-port="1" to-layer="248" to-port="0"/>
		<edge from-layer="247" from-port="2" to-layer="248" to-port="1"/>
		<edge from-layer="248" from-port="2" to-layer="249" to-port="0"/>
		<edge from-layer="249" from-port="1" to-layer="251" to-port="0"/>
		<edge from-layer="250" from-port="0" to-layer="251" to-port="1"/>
		<edge from-layer="251" from-port="2" to-layer="253" to-port="0"/>
		<edge from-layer="252" from-port="0" to-layer="253" to-port="1"/>
		<edge from-layer="253" from-port="2" to-layer="255" to-port="0"/>
		<edge from-layer="254" from-port="0" to-layer="255" to-port="1"/>
		<edge from-layer="255" from-port="2" to-layer="257" to-port="0"/>
		<edge from-layer="256" from-port="0" to-layer="257" to-port="1"/>
		<edge from-layer="249" from-port="1" to-layer="258" to-port="0"/>
		<edge from-layer="257" from-port="2" to-layer="258" to-port="1"/>
		<edge from-layer="258" from-port="2" to-layer="259" to-port="0"/>
		<edge from-layer="259" from-port="1" to-layer="261" to-port="0"/>
		<edge from-layer="260" from-port="0" to-layer="261" to-port="1"/>
		<edge from-layer="261" from-port="2" to-layer="263" to-port="0"/>
		<edge from-layer="262" from-port="0" to-layer="263" to-port="1"/>
		<edge from-layer="263" from-port="2" to-layer="265" to-port="0"/>
		<edge from-layer="264" from-port="0" to-layer="265" to-port="1"/>
		<edge from-layer="265" from-port="2" to-layer="267" to-port="0"/>
		<edge from-layer="266" from-port="0" to-layer="267" to-port="1"/>
		<edge from-layer="259" from-port="1" to-layer="268" to-port="0"/>
		<edge from-layer="267" from-port="2" to-layer="268" to-port="1"/>
		<edge from-layer="268" from-port="2" to-layer="269" to-port="0"/>
		<edge from-layer="269" from-port="1" to-layer="271" to-port="0"/>
		<edge from-layer="270" from-port="0" to-layer="271" to-port="1"/>
		<edge from-layer="271" from-port="2" to-layer="273" to-port="0"/>
		<edge from-layer="272" from-port="0" to-layer="273" to-port="1"/>
		<edge from-layer="273" from-port="2" to-layer="275" to-port="0"/>
		<edge from-layer="274" from-port="0" to-layer="275" to-port="1"/>
		<edge from-layer="275" from-port="2" to-layer="277" to-port="0"/>
		<edge from-layer="276" from-port="0" to-layer="277" to-port="1"/>
		<edge from-layer="269" from-port="1" to-layer="278" to-port="0"/>
		<edge from-layer="277" from-port="2" to-layer="278" to-port="1"/>
		<edge from-layer="278" from-port="2" to-layer="279" to-port="0"/>
		<edge from-layer="279" from-port="1" to-layer="281" to-port="0"/>
		<edge from-layer="280" from-port="0" to-layer="281" to-port="1"/>
		<edge from-layer="281" from-port="2" to-layer="283" to-port="0"/>
		<edge from-layer="282" from-port="0" to-layer="283" to-port="1"/>
		<edge from-layer="283" from-port="2" to-layer="285" to-port="0"/>
		<edge from-layer="284" from-port="0" to-layer="285" to-port="1"/>
		<edge from-layer="285" from-port="2" to-layer="287" to-port="0"/>
		<edge from-layer="286" from-port="0" to-layer="287" to-port="1"/>
		<edge from-layer="279" from-port="1" to-layer="288" to-port="0"/>
		<edge from-layer="287" from-port="2" to-layer="288" to-port="1"/>
		<edge from-layer="288" from-port="2" to-layer="289" to-port="0"/>
		<edge from-layer="289" from-port="1" to-layer="290" to-port="0"/>
		<edge from-layer="289" from-port="1" to-layer="292" to-port="0"/>
		<edge from-layer="291" from-port="0" to-layer="292" to-port="1"/>
		<edge from-layer="292" from-port="2" to-layer="294" to-port="0"/>
		<edge from-layer="293" from-port="0" to-layer="294" to-port="1"/>
		<edge from-layer="294" from-port="2" to-layer="296" to-port="0"/>
		<edge from-layer="295" from-port="0" to-layer="296" to-port="1"/>
		<edge from-layer="296" from-port="2" to-layer="298" to-port="0"/>
		<edge from-layer="297" from-port="0" to-layer="298" to-port="1"/>
		<edge from-layer="290" from-port="1" to-layer="299" to-port="0"/>
		<edge from-layer="298" from-port="2" to-layer="299" to-port="1"/>
		<edge from-layer="299" from-port="2" to-layer="300" to-port="0"/>
		<edge from-layer="300" from-port="1" to-layer="302" to-port="0"/>
		<edge from-layer="301" from-port="0" to-layer="302" to-port="1"/>
		<edge from-layer="302" from-port="2" to-layer="304" to-port="0"/>
		<edge from-layer="303" from-port="0" to-layer="304" to-port="1"/>
		<edge from-layer="304" from-port="2" to-layer="306" to-port="0"/>
		<edge from-layer="305" from-port="0" to-layer="306" to-port="1"/>
		<edge from-layer="306" from-port="2" to-layer="308" to-port="0"/>
		<edge from-layer="307" from-port="0" to-layer="308" to-port="1"/>
		<edge from-layer="300" from-port="1" to-layer="309" to-port="0"/>
		<edge from-layer="308" from-port="2" to-layer="309" to-port="1"/>
		<edge from-layer="309" from-port="2" to-layer="310" to-port="0"/>
		<edge from-layer="310" from-port="1" to-layer="312" to-port="0"/>
		<edge from-layer="311" from-port="0" to-layer="312" to-port="1"/>
		<edge from-layer="312" from-port="2" to-layer="314" to-port="0"/>
		<edge from-layer="313" from-port="0" to-layer="314" to-port="1"/>
		<edge from-layer="314" from-port="2" to-layer="316" to-port="0"/>
		<edge from-layer="315" from-port="0" to-layer="316" to-port="1"/>
		<edge from-layer="316" from-port="2" to-layer="318" to-port="0"/>
		<edge from-layer="317" from-port="0" to-layer="318" to-port="1"/>
		<edge from-layer="310" from-port="1" to-layer="319" to-port="0"/>
		<edge from-layer="318" from-port="2" to-layer="319" to-port="1"/>
		<edge from-layer="319" from-port="2" to-layer="320" to-port="0"/>
		<edge from-layer="320" from-port="1" to-layer="322" to-port="0"/>
		<edge from-layer="321" from-port="0" to-layer="322" to-port="1"/>
		<edge from-layer="322" from-port="2" to-layer="324" to-port="0"/>
		<edge from-layer="323" from-port="0" to-layer="324" to-port="1"/>
		<edge from-layer="324" from-port="2" to-layer="326" to-port="0"/>
		<edge from-layer="325" from-port="0" to-layer="326" to-port="1"/>
		<edge from-layer="326" from-port="2" to-layer="328" to-port="0"/>
		<edge from-layer="327" from-port="0" to-layer="328" to-port="1"/>
		<edge from-layer="320" from-port="1" to-layer="329" to-port="0"/>
		<edge from-layer="328" from-port="2" to-layer="329" to-port="1"/>
		<edge from-layer="329" from-port="2" to-layer="330" to-port="0"/>
		<edge from-layer="330" from-port="1" to-layer="332" to-port="0"/>
		<edge from-layer="331" from-port="0" to-layer="332" to-port="1"/>
		<edge from-layer="332" from-port="2" to-layer="334" to-port="0"/>
		<edge from-layer="333" from-port="0" to-layer="334" to-port="1"/>
		<edge from-layer="334" from-port="2" to-layer="336" to-port="0"/>
		<edge from-layer="335" from-port="0" to-layer="336" to-port="1"/>
		<edge from-layer="336" from-port="2" to-layer="338" to-port="0"/>
		<edge from-layer="337" from-port="0" to-layer="338" to-port="1"/>
		<edge from-layer="330" from-port="1" to-layer="339" to-port="0"/>
		<edge from-layer="338" from-port="2" to-layer="339" to-port="1"/>
		<edge from-layer="339" from-port="2" to-layer="340" to-port="0"/>
		<edge from-layer="340" from-port="1" to-layer="342" to-port="0"/>
		<edge from-layer="341" from-port="0" to-layer="342" to-port="1"/>
		<edge from-layer="342" from-port="2" to-layer="344" to-port="0"/>
		<edge from-layer="343" from-port="0" to-layer="344" to-port="1"/>
		<edge from-layer="344" from-port="2" to-layer="346" to-port="0"/>
		<edge from-layer="345" from-port="0" to-layer="346" to-port="1"/>
		<edge from-layer="346" from-port="2" to-layer="348" to-port="0"/>
		<edge from-layer="347" from-port="0" to-layer="348" to-port="1"/>
		<edge from-layer="340" from-port="1" to-layer="349" to-port="0"/>
		<edge from-layer="348" from-port="2" to-layer="349" to-port="1"/>
		<edge from-layer="349" from-port="2" to-layer="350" to-port="0"/>
		<edge from-layer="350" from-port="1" to-layer="352" to-port="0"/>
		<edge from-layer="351" from-port="0" to-layer="352" to-port="1"/>
		<edge from-layer="352" from-port="2" to-layer="354" to-port="0"/>
		<edge from-layer="353" from-port="0" to-layer="354" to-port="1"/>
		<edge from-layer="354" from-port="2" to-layer="356" to-port="0"/>
		<edge from-layer="355" from-port="0" to-layer="356" to-port="1"/>
		<edge from-layer="356" from-port="2" to-layer="358" to-port="0"/>
		<edge from-layer="357" from-port="0" to-layer="358" to-port="1"/>
		<edge from-layer="358" from-port="2" to-layer="359" to-port="0"/>
		<edge from-layer="350" from-port="1" to-layer="361" to-port="0"/>
		<edge from-layer="360" from-port="0" to-layer="361" to-port="1"/>
		<edge from-layer="361" from-port="2" to-layer="363" to-port="0"/>
		<edge from-layer="362" from-port="0" to-layer="363" to-port="1"/>
		<edge from-layer="363" from-port="2" to-layer="364" to-port="0"/>
		<edge from-layer="364" from-port="1" to-layer="366" to-port="0"/>
		<edge from-layer="365" from-port="0" to-layer="366" to-port="1"/>
		<edge from-layer="366" from-port="2" to-layer="368" to-port="0"/>
		<edge from-layer="367" from-port="0" to-layer="368" to-port="1"/>
		<edge from-layer="368" from-port="2" to-layer="369" to-port="0"/>
		<edge from-layer="229" from-port="1" to-layer="371" to-port="0"/>
		<edge from-layer="370" from-port="0" to-layer="371" to-port="1"/>
		<edge from-layer="371" from-port="2" to-layer="373" to-port="0"/>
		<edge from-layer="372" from-port="0" to-layer="373" to-port="1"/>
		<edge from-layer="373" from-port="2" to-layer="375" to-port="0"/>
		<edge from-layer="374" from-port="0" to-layer="375" to-port="1"/>
		<edge from-layer="375" from-port="2" to-layer="377" to-port="0"/>
		<edge from-layer="376" from-port="0" to-layer="377" to-port="1"/>
		<edge from-layer="377" from-port="2" to-layer="378" to-port="0"/>
		<edge from-layer="378" from-port="1" to-layer="381" to-port="0"/>
		<edge from-layer="381" from-port="1" to-layer="384" to-port="0"/>
		<edge from-layer="382" from-port="0" to-layer="384" to-port="1"/>
		<edge from-layer="383" from-port="0" to-layer="384" to-port="2"/>
		<edge from-layer="384" from-port="3" to-layer="388" to-port="0"/>
		<edge from-layer="385" from-port="0" to-layer="388" to-port="1"/>
		<edge from-layer="386" from-port="0" to-layer="388" to-port="2"/>
		<edge from-layer="387" from-port="0" to-layer="388" to-port="3"/>
		<edge from-layer="388" from-port="4" to-layer="389" to-port="0"/>
		<edge from-layer="380" from-port="0" to-layer="390" to-port="0"/>
		<edge from-layer="389" from-port="1" to-layer="390" to-port="1"/>
		<edge from-layer="378" from-port="1" to-layer="392" to-port="0"/>
		<edge from-layer="379" from-port="0" to-layer="392" to-port="1"/>
		<edge from-layer="390" from-port="2" to-layer="392" to-port="2"/>
		<edge from-layer="391" from-port="0" to-layer="392" to-port="3"/>
		<edge from-layer="160" from-port="2" to-layer="394" to-port="0"/>
		<edge from-layer="393" from-port="0" to-layer="394" to-port="1"/>
		<edge from-layer="394" from-port="2" to-layer="396" to-port="0"/>
		<edge from-layer="395" from-port="0" to-layer="396" to-port="1"/>
		<edge from-layer="396" from-port="2" to-layer="398" to-port="0"/>
		<edge from-layer="397" from-port="0" to-layer="398" to-port="1"/>
		<edge from-layer="398" from-port="2" to-layer="400" to-port="0"/>
		<edge from-layer="399" from-port="0" to-layer="400" to-port="1"/>
		<edge from-layer="400" from-port="2" to-layer="401" to-port="0"/>
		<edge from-layer="392" from-port="4" to-layer="402" to-port="0"/>
		<edge from-layer="401" from-port="1" to-layer="402" to-port="1"/>
		<edge from-layer="402" from-port="2" to-layer="405" to-port="0"/>
		<edge from-layer="405" from-port="1" to-layer="408" to-port="0"/>
		<edge from-layer="406" from-port="0" to-layer="408" to-port="1"/>
		<edge from-layer="407" from-port="0" to-layer="408" to-port="2"/>
		<edge from-layer="408" from-port="3" to-layer="412" to-port="0"/>
		<edge from-layer="409" from-port="0" to-layer="412" to-port="1"/>
		<edge from-layer="410" from-port="0" to-layer="412" to-port="2"/>
		<edge from-layer="411" from-port="0" to-layer="412" to-port="3"/>
		<edge from-layer="412" from-port="4" to-layer="413" to-port="0"/>
		<edge from-layer="404" from-port="0" to-layer="414" to-port="0"/>
		<edge from-layer="413" from-port="1" to-layer="414" to-port="1"/>
		<edge from-layer="402" from-port="2" to-layer="416" to-port="0"/>
		<edge from-layer="403" from-port="0" to-layer="416" to-port="1"/>
		<edge from-layer="414" from-port="2" to-layer="416" to-port="2"/>
		<edge from-layer="415" from-port="0" to-layer="416" to-port="3"/>
		<edge from-layer="72" from-port="2" to-layer="418" to-port="0"/>
		<edge from-layer="417" from-port="0" to-layer="418" to-port="1"/>
		<edge from-layer="418" from-port="2" to-layer="420" to-port="0"/>
		<edge from-layer="419" from-port="0" to-layer="420" to-port="1"/>
		<edge from-layer="420" from-port="2" to-layer="422" to-port="0"/>
		<edge from-layer="421" from-port="0" to-layer="422" to-port="1"/>
		<edge from-layer="422" from-port="2" to-layer="424" to-port="0"/>
		<edge from-layer="423" from-port="0" to-layer="424" to-port="1"/>
		<edge from-layer="424" from-port="2" to-layer="425" to-port="0"/>
		<edge from-layer="416" from-port="4" to-layer="426" to-port="0"/>
		<edge from-layer="425" from-port="1" to-layer="426" to-port="1"/>
		<edge from-layer="426" from-port="2" to-layer="429" to-port="0"/>
		<edge from-layer="429" from-port="1" to-layer="432" to-port="0"/>
		<edge from-layer="430" from-port="0" to-layer="432" to-port="1"/>
		<edge from-layer="431" from-port="0" to-layer="432" to-port="2"/>
		<edge from-layer="432" from-port="3" to-layer="436" to-port="0"/>
		<edge from-layer="433" from-port="0" to-layer="436" to-port="1"/>
		<edge from-layer="434" from-port="0" to-layer="436" to-port="2"/>
		<edge from-layer="435" from-port="0" to-layer="436" to-port="3"/>
		<edge from-layer="436" from-port="4" to-layer="437" to-port="0"/>
		<edge from-layer="428" from-port="0" to-layer="438" to-port="0"/>
		<edge from-layer="437" from-port="1" to-layer="438" to-port="1"/>
		<edge from-layer="426" from-port="2" to-layer="440" to-port="0"/>
		<edge from-layer="427" from-port="0" to-layer="440" to-port="1"/>
		<edge from-layer="438" from-port="2" to-layer="440" to-port="2"/>
		<edge from-layer="439" from-port="0" to-layer="440" to-port="3"/>
		<edge from-layer="43" from-port="2" to-layer="442" to-port="0"/>
		<edge from-layer="441" from-port="0" to-layer="442" to-port="1"/>
		<edge from-layer="442" from-port="2" to-layer="444" to-port="0"/>
		<edge from-layer="443" from-port="0" to-layer="444" to-port="1"/>
		<edge from-layer="444" from-port="2" to-layer="446" to-port="0"/>
		<edge from-layer="445" from-port="0" to-layer="446" to-port="1"/>
		<edge from-layer="446" from-port="2" to-layer="448" to-port="0"/>
		<edge from-layer="447" from-port="0" to-layer="448" to-port="1"/>
		<edge from-layer="448" from-port="2" to-layer="449" to-port="0"/>
		<edge from-layer="440" from-port="4" to-layer="450" to-port="0"/>
		<edge from-layer="449" from-port="1" to-layer="450" to-port="1"/>
		<edge from-layer="450" from-port="2" to-layer="452" to-port="0"/>
		<edge from-layer="451" from-port="0" to-layer="452" to-port="1"/>
		<edge from-layer="452" from-port="2" to-layer="454" to-port="0"/>
		<edge from-layer="453" from-port="0" to-layer="454" to-port="1"/>
		<edge from-layer="454" from-port="2" to-layer="456" to-port="0"/>
		<edge from-layer="455" from-port="0" to-layer="456" to-port="1"/>
		<edge from-layer="456" from-port="2" to-layer="458" to-port="0"/>
		<edge from-layer="457" from-port="0" to-layer="458" to-port="1"/>
		<edge from-layer="458" from-port="2" to-layer="459" to-port="0"/>
		<edge from-layer="459" from-port="1" to-layer="462" to-port="0"/>
		<edge from-layer="462" from-port="1" to-layer="465" to-port="0"/>
		<edge from-layer="463" from-port="0" to-layer="465" to-port="1"/>
		<edge from-layer="464" from-port="0" to-layer="465" to-port="2"/>
		<edge from-layer="465" from-port="3" to-layer="469" to-port="0"/>
		<edge from-layer="466" from-port="0" to-layer="469" to-port="1"/>
		<edge from-layer="467" from-port="0" to-layer="469" to-port="2"/>
		<edge from-layer="468" from-port="0" to-layer="469" to-port="3"/>
		<edge from-layer="469" from-port="4" to-layer="470" to-port="0"/>
		<edge from-layer="461" from-port="0" to-layer="471" to-port="0"/>
		<edge from-layer="470" from-port="1" to-layer="471" to-port="1"/>
		<edge from-layer="459" from-port="1" to-layer="473" to-port="0"/>
		<edge from-layer="460" from-port="0" to-layer="473" to-port="1"/>
		<edge from-layer="471" from-port="2" to-layer="473" to-port="2"/>
		<edge from-layer="472" from-port="0" to-layer="473" to-port="3"/>
		<edge from-layer="14" from-port="2" to-layer="475" to-port="0"/>
		<edge from-layer="474" from-port="0" to-layer="475" to-port="1"/>
		<edge from-layer="475" from-port="2" to-layer="477" to-port="0"/>
		<edge from-layer="476" from-port="0" to-layer="477" to-port="1"/>
		<edge from-layer="477" from-port="2" to-layer="479" to-port="0"/>
		<edge from-layer="478" from-port="0" to-layer="479" to-port="1"/>
		<edge from-layer="479" from-port="2" to-layer="481" to-port="0"/>
		<edge from-layer="480" from-port="0" to-layer="481" to-port="1"/>
		<edge from-layer="481" from-port="2" to-layer="482" to-port="0"/>
		<edge from-layer="473" from-port="4" to-layer="483" to-port="0"/>
		<edge from-layer="482" from-port="1" to-layer="483" to-port="1"/>
		<edge from-layer="483" from-port="2" to-layer="485" to-port="0"/>
		<edge from-layer="484" from-port="0" to-layer="485" to-port="1"/>
		<edge from-layer="485" from-port="2" to-layer="487" to-port="0"/>
		<edge from-layer="486" from-port="0" to-layer="487" to-port="1"/>
		<edge from-layer="487" from-port="2" to-layer="489" to-port="0"/>
		<edge from-layer="488" from-port="0" to-layer="489" to-port="1"/>
		<edge from-layer="489" from-port="2" to-layer="491" to-port="0"/>
		<edge from-layer="490" from-port="0" to-layer="491" to-port="1"/>
		<edge from-layer="483" from-port="2" to-layer="492" to-port="0"/>
		<edge from-layer="491" from-port="2" to-layer="492" to-port="1"/>
		<edge from-layer="492" from-port="2" to-layer="493" to-port="0"/>
		<edge from-layer="493" from-port="1" to-layer="495" to-port="0"/>
		<edge from-layer="494" from-port="0" to-layer="495" to-port="1"/>
		<edge from-layer="495" from-port="2" to-layer="497" to-port="0"/>
		<edge from-layer="496" from-port="0" to-layer="497" to-port="1"/>
		<edge from-layer="497" from-port="2" to-layer="499" to-port="0"/>
		<edge from-layer="498" from-port="0" to-layer="499" to-port="1"/>
		<edge from-layer="499" from-port="2" to-layer="501" to-port="0"/>
		<edge from-layer="500" from-port="0" to-layer="501" to-port="1"/>
		<edge from-layer="493" from-port="1" to-layer="502" to-port="0"/>
		<edge from-layer="501" from-port="2" to-layer="502" to-port="1"/>
		<edge from-layer="502" from-port="2" to-layer="503" to-port="0"/>
		<edge from-layer="503" from-port="1" to-layer="506" to-port="0"/>
		<edge from-layer="506" from-port="1" to-layer="509" to-port="0"/>
		<edge from-layer="507" from-port="0" to-layer="509" to-port="1"/>
		<edge from-layer="508" from-port="0" to-layer="509" to-port="2"/>
		<edge from-layer="509" from-port="3" to-layer="513" to-port="0"/>
		<edge from-layer="510" from-port="0" to-layer="513" to-port="1"/>
		<edge from-layer="511" from-port="0" to-layer="513" to-port="2"/>
		<edge from-layer="512" from-port="0" to-layer="513" to-port="3"/>
		<edge from-layer="513" from-port="4" to-layer="514" to-port="0"/>
		<edge from-layer="505" from-port="0" to-layer="515" to-port="0"/>
		<edge from-layer="514" from-port="1" to-layer="515" to-port="1"/>
		<edge from-layer="503" from-port="1" to-layer="517" to-port="0"/>
		<edge from-layer="504" from-port="0" to-layer="517" to-port="1"/>
		<edge from-layer="515" from-port="2" to-layer="517" to-port="2"/>
		<edge from-layer="516" from-port="0" to-layer="517" to-port="3"/>
		<edge from-layer="517" from-port="4" to-layer="519" to-port="0"/>
		<edge from-layer="518" from-port="0" to-layer="519" to-port="1"/>
		<edge from-layer="519" from-port="2" to-layer="521" to-port="0"/>
		<edge from-layer="520" from-port="0" to-layer="521" to-port="1"/>
		<edge from-layer="521" from-port="2" to-layer="523" to-port="0"/>
		<edge from-layer="522" from-port="0" to-layer="523" to-port="1"/>
		<edge from-layer="523" from-port="2" to-layer="525" to-port="0"/>
		<edge from-layer="524" from-port="0" to-layer="525" to-port="1"/>
		<edge from-layer="517" from-port="4" to-layer="526" to-port="0"/>
		<edge from-layer="525" from-port="2" to-layer="526" to-port="1"/>
		<edge from-layer="526" from-port="2" to-layer="527" to-port="0"/>
		<edge from-layer="527" from-port="1" to-layer="529" to-port="0"/>
		<edge from-layer="528" from-port="0" to-layer="529" to-port="1"/>
		<edge from-layer="529" from-port="2" to-layer="531" to-port="0"/>
		<edge from-layer="530" from-port="0" to-layer="531" to-port="1"/>
		<edge from-layer="531" from-port="2" to-layer="533" to-port="0"/>
		<edge from-layer="532" from-port="0" to-layer="533" to-port="1"/>
		<edge from-layer="533" from-port="2" to-layer="535" to-port="0"/>
		<edge from-layer="534" from-port="0" to-layer="535" to-port="1"/>
		<edge from-layer="527" from-port="1" to-layer="536" to-port="0"/>
		<edge from-layer="535" from-port="2" to-layer="536" to-port="1"/>
		<edge from-layer="536" from-port="2" to-layer="537" to-port="0"/>
		<edge from-layer="537" from-port="1" to-layer="539" to-port="0"/>
		<edge from-layer="538" from-port="0" to-layer="539" to-port="1"/>
		<edge from-layer="539" from-port="2" to-layer="541" to-port="0"/>
		<edge from-layer="540" from-port="0" to-layer="541" to-port="1"/>
		<edge from-layer="541" from-port="2" to-layer="542" to-port="0"/>
		<edge from-layer="450" from-port="2" to-layer="544" to-port="0"/>
		<edge from-layer="543" from-port="0" to-layer="544" to-port="1"/>
		<edge from-layer="544" from-port="2" to-layer="546" to-port="0"/>
		<edge from-layer="545" from-port="0" to-layer="546" to-port="1"/>
		<edge from-layer="546" from-port="2" to-layer="547" to-port="0"/>
		<edge from-layer="350" from-port="1" to-layer="549" to-port="0"/>
		<edge from-layer="548" from-port="0" to-layer="549" to-port="1"/>
		<edge from-layer="549" from-port="2" to-layer="551" to-port="0"/>
		<edge from-layer="550" from-port="0" to-layer="551" to-port="1"/>
		<edge from-layer="551" from-port="2" to-layer="553" to-port="0"/>
		<edge from-layer="552" from-port="0" to-layer="553" to-port="1"/>
		<edge from-layer="553" from-port="2" to-layer="555" to-port="0"/>
		<edge from-layer="554" from-port="0" to-layer="555" to-port="1"/>
		<edge from-layer="555" from-port="2" to-layer="556" to-port="0"/>
	</edges>
	<meta_data>
		<MO_version value="2021.3.0-2787-60059f2c755-releases/2021/3"/>
		<cli_parameters>
			<data_type value="FP32"/>
			<disable_nhwc_to_nchw value="False"/>
			<disable_resnet_optimization value="False"/>
			<disable_weights_compression value="False"/>
			<enable_concat_optimization value="False"/>
			<extensions value="DIR"/>
			<framework value="tf"/>
			<freeze_placeholder_with_value value="{}"/>
			<generate_deprecated_IR_V7 value="False"/>
			<input_model_is_text value="False"/>
			<keep_shape_ops value="True"/>
			<log_level value="ERROR"/>
			<mean_scale_values value="{}"/>
			<mean_values value="()"/>
			<model_name value="pose_landmark_full_FP32"/>
			<output_dir value="DIR"/>
			<placeholder_data_types value="{}"/>
			<progress value="False"/>
			<reverse_input_channels value="True"/>
			<saved_model_dir value="DIR"/>
			<scale_values value="()"/>
			<silent value="False"/>
			<static_shape value="False"/>
			<stream_output value="False"/>
			<unset unset_cli_parameters="batch, disable_fusing, disable_gfusing, finegrain_fusing, input, input_checkpoint, input_meta_graph, input_model, input_shape, move_to_preprocess, output, placeholder_shapes, saved_model_tags, scale, tensorboard_logdir, tensorflow_custom_layer_libraries, tensorflow_custom_operations_config_update, tensorflow_object_detection_api_pipeline_config, tensorflow_use_custom_operations_config, transformations_config"/>
		</cli_parameters>
	</meta_data>
</net>
